fashion_mnist_model.pth (torch, 181472 bytes, 10 tensors)

conv1.weight f4 [6, 1, 5, 5]
000000 3a a0 82 be 6f d8 cd be 2b ce 53 be cc 9b 05 be
       -0.25512868 -0.40204188 -0.20684116 -0.13047713
000010 38 82 cd 3c 4d e3 93 bc 05 3a ae be 46 ea ac be
       0.025086507 -0.018052721 -0.3402864 -0.33772486
000020 30 4b aa bc 86 2d 08 3e 9a 0e b3 be a9 c3 f5 be
       -0.020787805 0.13298616 -0.34972078 -0.4800084
000030 64 6c ee be 0b 57 45 be 2e e0 02 be e9 cf b1 be
       -0.4656707 -0.19271486 -0.1278083 -0.34728935
000040 36 f4 c0 be dc 2b 90 be d4 b1 8b be 4b 08 1a 3d
       -0.37686318 -0.28158462 -0.2728411 0.037605565
000050 1c d1 a9 bd ca 40 0a bf 52 41 00 bf da 52 09 be
       -0.082918376 -0.5400511 -0.5009967 -0.13410512
000060 49 91 f4 3c e7 cf 89 3e 1a 26 02 be de e3 26 be
       0.029854434 0.2691643 -0.12709847 -0.16297862
000070 a6 35 1a 3d 70 0d 86 3d f0 db e4 3d f2 de 46 3d
       0.03764882 0.06545532 0.11174762 0.04855246
000080 3a c7 aa be 43 cb 32 3e c3 7a 9d bd 30 8d f0 3d
       -0.33355123 0.1746035 -0.076894306 0.117456794
000090 d7 3f 88 3d 73 cb a6 be cd 2a ca 3c 2d 2d fe 3d
       0.066528015 -0.32577094 0.024678612 0.1241096
0000a0 aa 3a 18 be 95 b6 81 3e 12 d3 c7 bd 9b ef 24 be
       -0.14866129 0.25334612 -0.09757055 -0.16107027
0000b0 c7 51 15 3e 47 73 6d be 86 52 81 3e ea 4c fd bd
       0.14581977 -0.23188506 0.25258273 -0.12368186
0000c0 b5 25 3b 3e 22 22 a8 bd e4 e8 27 be 2e 21 60 be
       0.18276103 -0.08209635 -0.16397434 -0.21887657
0000d0 b3 01 02 bf 00 b9 00 bf 20 5a 64 be 51 76 ea bd
       -0.5078384 -0.5028229 -0.22300005 -0.11448348
0000e0 0c b1 07 bf 6e e7 2d bf c3 48 12 bf 94 87 f2 bd
       -0.5300453 -0.6793126 -0.57142276 -0.11842266
0000f0 76 f3 30 bd 08 81 92 be aa ae 2a bf b6 e6 b3 be
       -0.043200932 -0.28614068 -0.66672766 -0.35136956
000100 4e b2 07 be 7d 63 6b 3e 19 dd a0 be 0d a0 15 bf
       -0.13251612 0.2298717 -0.31418684 -0.58447343
000110 27 18 4e be e8 0e 93 3e 8b 91 bd bc 6d ce 7f bd
       -0.20126401 0.2872231 -0.02314069 -0.062452722
000120 ba 9e f7 be 86 24 4d bd 1a 11 c1 3e 16 8d 44 be
       -0.48363286 -0.05008366 0.3770836 -0.19194445
000130 b5 16 83 be 39 a9 8f be 0f c3 4d be fe 91 30 be
       -0.25603262 -0.28058794 -0.2009394 -0.17243192
000140 c8 e2 9d be 6c b3 b0 be cf af c5 be 78 7c 92 be
       -0.30837083 -0.34511888 -0.38610694 -0.28610587
000150 56 d2 9b be ba 03 2d 3d cb a5 59 be b7 79 b6 be
       -0.3043391 0.042239882 -0.21254651 -0.35639736
000160 1a 29 f9 be 4c 35 a3 be 05 ef a3 bd 67 a6 10 3d
       -0.4866417 -0.318766 -0.08004574 0.035314944
000170 4a 66 1b be 55 32 46 bd 32 d6 97 3c 12 02 48 3d
       -0.15175739 -0.048387844 0.018534753 0.0488301
000180 85 96 9b 3d f6 d1 c2 bd 90 4a 9a be e0 57 e4 bd
       0.07597069 -0.09512703 -0.30135012 -0.11149573
000190 cd 19 b9 3d 62 19 09 3e c8 08 a0 3e 18 e2 a8 bc
       0.09038124 0.13388589 0.312567 -0.020615622
0001a0 d9 19 51 be 65 0f 56 3e 77 ed d2 3c a8 0c 2d 3e
       -0.20420016 0.2090431 0.025747998 0.16899359
0001b0 dc 45 52 3d 0d a7 f5 3d b9 d6 85 3e d9 1d 1d be
       0.051336154 0.11994753 0.26140383 -0.15343417
0001c0 1e 87 60 3e 33 46 50 3c 6d b7 9b bd 7c 85 13 bd
       0.21926543 0.012712049 -0.07603345 -0.036015972
0001d0 fd ce 4d be 9c ab b3 3d e2 b2 a6 be 4d 2e 5d be
       -0.20098491 0.08772966 -0.32558352 -0.21599694
0001e0 eb 78 41 bd 90 18 cd 3d 58 87 c4 3d c2 1e aa be
       -0.047234457 0.100144506 0.09596127 -0.3322659
0001f0 e1 cf b6 be 34 a2 72 3e 4b d3 5e 3d 23 1a 85 3d
       -0.35705474 0.23694688 0.054400723 0.06499126
000200 e0 05 43 3e d9 73 1b 3e b5 de a9 3d 64 6f ec 3d
       0.1904521 0.15180911 0.08294431 0.115446836
000210 5a fc 30 3e 3e bf 72 3d 56 2a 53 3e 91 36 5f bd
       0.17283764 0.059264414 0.20621619 -0.054495398
000220 b4 81 51 3d 3c 9d 2e 3e 4c d1 41 3e 43 b1 9f 3c
       0.051149085 0.17052168 0.18927497 0.019493705
000230 11 fa 65 3e f5 e9 a7 3d 2a 1c b1 3d fb 03 01 3e
       0.22458674 0.08198921 0.0864795 0.12599175
000240 9d c9 0e 3d e7 dc 37 3d a1 bf 95 3e 2e da c2 3e
       0.034860242 0.044888403 0.29247764 0.38057083
000250 21 34 ba 3e 23 51 86 3e
       0.36367896 0.26233777

conv1.bias f4 [6]
000000 0b c7 8b bd bf 3f 1b 3a 77 89 16 3f e0 de 96 3d
       -0.06825074 0.00059222797 0.58803505 0.07366729
000010 0c 74 9b 3d 33 5b 7a bd
       0.075904936 -0.06112213

conv2.weight f4 [16, 6, 5, 5]
000000 1a ce dc bd 00 dd 1f 3b 3c 82 1a 3d db 19 a0 3d
       -0.10781498 0.00243932 0.037721857 0.078174315
000010 d4 2c 85 3d 64 60 e0 bd 85 12 82 bc 9b 8b 98 3d
       0.06502691 -0.10955885 -0.015877971 0.07448503
000020 a5 67 84 3b 62 36 04 3e eb 41 da bc 5b 1d c1 3d
       0.0040406757 0.1291137 -0.02664276 0.09429427
000030 f0 a9 4f bd 3f 22 36 bc 6c a6 57 3d 31 87 66 bd
       -0.050699174 -0.011116563 0.052648947 -0.056281272
000040 6a 3b b5 3d 5d 45 f3 3c c8 58 1f 3d 01 0d a1 3d
       0.08849223 0.02969616 0.038903028 0.078638084
000050 f8 bb fb 3d fa 0f a1 3e 52 5e 94 3d 24 78 26 3d
       0.122917116 0.31457502 0.07244553 0.04064192
000060 9b 32 5f 3e ac 84 88 3c 5f 7e 3a bc c4 2d 08 bd
       0.21796648 0.016664825 -0.011382668 -0.03324677
000070 99 b2 8c bc 89 55 9b 3d 93 70 89 3d d6 80 04 3d
       -0.017175006 0.07584674 0.06710925 0.03234943
000080 ed 8b 19 3d c7 d9 04 bc 25 03 07 3d 87 cc 30 bd
       0.03748696 -0.008108563 0.032961983 -0.043163802
000090 85 90 48 bc 42 57 9c 3d 30 ca 9f 3d 62 1d 22 bc
       -0.012241487 0.076338306 0.07802236 -0.009894701
0000a0 53 4c a8 bd af 7d 9e 3d 7f 24 7d 3d c8 1b 3b bd
       -0.08217683 0.07738816 0.061802384 -0.04568079
0000b0 be a1 12 bd 60 3c 2f bd ed aa 9e 3d 4b 29 17 3c
       -0.03579878 -0.042782187 0.07747445 0.009226154
0000c0 d7 c8 57 bd 42 90 d1 3d 01 98 86 3d e1 4e d6 3d
       -0.05268177 0.10232593 0.06571961 0.10464264
0000d0 d6 27 ef 3d d3 80 be 3d 65 8f 16 3e e2 61 08 3d
       0.1167752 0.09301915 0.14703138 0.033296473
0000e0 95 8c 1d bd 8a 0a e3 bb aa 48 5e 3e 90 67 5f 3e
       -0.038464148 -0.0069287466 0.21707407 0.2181685
0000f0 21 72 c2 bd 42 40 e5 3c bb 23 86 bd 32 ea 50 3e
       -0.094944246 0.027984742 -0.06549784 0.20401838
000100 6a bf 48 3e b3 7a 6d bd 16 e3 75 3d 85 55 80 bb
       0.19604269 -0.057978343 0.06003102 -0.0039164447
000110 fc 50 c4 3d 45 39 f4 3d 58 d5 0f 3e db 5c 85 3e
       0.09585759 0.11924986 0.14046228 0.26047406
000120 49 66 99 bb ea 8a af 3d 5d 6d 46 3e b8 9f 6b bc
       -0.004681383 0.08571418 0.19377656 -0.014381342
000130 31 32 ae 3b dc a8 0b 3e 1a 7e be bd 8c 10 f9 bc
       0.005316042 0.13638633 -0.09301396 -0.030403398
000140 a2 ec b4 bd 42 72 d7 bc aa 43 79 bd ac df c2 3b
       -0.088341966 -0.0262996 -0.060855545 0.005947074
000150 a9 50 25 3e 37 74 94 bb 29 1e 94 3d 47 cf eb bb
       0.1614405 -0.0045304555 0.07232315 -0.0071963402
000160 e0 aa b3 3d 8d 26 c5 3c 42 9d 9d 3d bf 5c a9 bd
       0.08772826 0.024066234 0.0769601 -0.08269643
000170 9b d6 82 bd a3 90 ae 3d 7d 0e a4 3d aa d2 0f 3e
       -0.06388589 0.08523681 0.08010576 0.14045206
000180 e4 a2 9e 3d 68 e2 e8 bd b3 44 bd 3d 3d 1b d0 3d
       0.07745913 -0.113713086 0.09241619 0.10161445
000190 2f 70 d3 3d 35 3f fb 3c 55 1e 78 3d cf f9 5b 3d
       0.10324132 0.030669788 0.060575802 0.053705033
0001a0 ed 0a ba bc 6c 46 8e ba f2 00 f9 3c c9 47 ac 3d
       -0.022710288 -0.0010854728 0.030395959 0.084121294
0001b0 51 ae 6f 3d 4d 3f 3b bc 91 f9 cb 3d bc 5d 9d 3c
       0.05851585 -0.011428666 0.099597104 0.019209735
0001c0 c9 4a 38 3d c7 cd b3 3d 93 11 13 3d 94 dc 29 3d
       0.044993196 0.08779483 0.035905432 0.041470125
0001d0 20 a9 65 3d 81 6b c2 3c c2 37 a5 3d 33 45 9a 3d
       0.056069493 0.023732902 0.080672756 0.0753273
0001e0 23 fc 53 3e 6f 7f 2f 3e e8 ef 83 3d 1c b5 74 3d
       0.20701651 0.17138456 0.06442243 0.05974303
0001f0 8b f5 6a bd 2c d6 8c bd fd c9 b2 3c c2 46 5c bd
       -0.057363074 -0.068767875 0.021824831 -0.053778417
000200 9e 80 9b bd ff 3c a4 3d 6b ac 74 bd b7 53 02 bd
       -0.07592891 0.080194466 -0.059734743 -0.031818118
000210 dd bb 3e bd d5 96 71 bd b8 54 97 3d 96 b8 aa bd
       -0.04656588 -0.058981735 0.07389206 -0.08335988
000220 31 86 15 bc 7a 35 70 3d 04 fe 7f bd 4e 0c 87 3c
       -0.009126232 0.05864475 -0.062498108 0.01648536
000230 54 57 da bc 6c c0 8e 3d 9a 9f 32 bc 35 0c 35 bd
       -0.02665297 0.06970295 -0.01090231 -0.044201095
000240 f2 fb 42 3d 04 3c fd bd e6 dc 4f 3d 33 b1 0a 3d
       0.047603555 -0.12364963 0.050747775 0.033860397
000250 0b d3 ff 3b 5f ca 03 bd 66 5a 1b 3c 66 04 cd 3d
       0.0078071407 -0.032175418 0.009482002 0.100106046
000260 ee 78 ef 38 ad c0 f4 3c 61 68 2a 3d 84 b0 fa bc
       0.00011418933 0.029877031 0.04160345 -0.030601747
000270 d5 bb 1f bc 9f 3d 97 3a ba 54 fd 3c 35 a7 55 3e
       -0.0097493725 0.001153875 0.03092419 0.20864566
000280 f7 ab f8 bd 54 7f 2e be 45 a2 f7 bd 9c 36 99 bd
       -0.12142175 -0.1704076 -0.12091497 -0.07481119
000290 ae a3 0f 3e 10 cd 11 bd f4 56 1c be ac 0c 37 be
       0.14027283 -0.035595953 -0.15267545 -0.17875928
0002a0 54 3a b8 bd af 5c 43 3d 71 24 09 bd ab 15 a1 bc
       -0.089955 0.04769581 -0.03348202 -0.019663652
0002b0 87 0a 7a bc 2d 00 8f 3c ef 3d 9d 3d 4b 8d 95 bd
       -0.015261299 0.017456139 0.076778285 -0.0730234
0002c0 3d af f4 3c 23 77 70 3c 2a d0 7e bd 7a b6 68 bd
       0.029868716 0.014676842 -0.06221024 -0.05681465
0002d0 bc aa 89 3d d5 c6 11 bd f5 03 ac bd 0e 3e 28 bd
       0.06722018 -0.03559001 -0.08399192 -0.041074805
0002e0 47 9f 99 bd 28 74 c3 3d 14 34 5e bd 47 47 ab 3d
       -0.07501083 0.095436394 -0.054248884 0.083632044
0002f0 a6 19 99 3d fc 39 88 3c 5c 57 fb bb 88 b0 ae 3d
       0.07475595 0.016629212 -0.007670326 0.085297644
000300 8a 3c 61 3d fb 79 b3 3d fa 98 2a bd ed f2 62 3c
       0.054989375 0.087635 -0.041649796 0.013851863
000310 71 c0 a4 3d 5d 8c 52 3d 40 a8 74 3c f3 31 a2 bd
       0.08044518 0.051403392 0.014932692 -0.07919683
000320 41 f3 12 3e 3e 14 26 3e 71 f3 4f 3d cc 93 0c 3e
       0.14350607 0.1621866 0.050769273 0.13728255
000330 90 79 29 3e b9 46 21 3d f9 fc 6f 3d 80 21 52 bc
       0.16550279 0.039374087 0.058590863 -0.01282537
000340 e3 e5 7f 3c 71 0a 75 3e ce ab bb bd 21 f1 d2 bd
       0.015618774 0.23929764 -0.091636285 -0.10299898
000350 29 ab 18 bc 3b f7 ff 3d 78 f2 74 3e c1 5a be bd
       -0.0093181515 0.12498327 0.2392062 -0.09294654
000360 39 fe 12 be 64 c8 73 bd 92 f2 ee bc f5 fa 1f 3d
       -0.14354791 -0.05951728 -0.0291684 0.03905769
000370 c1 97 96 bd 3d ab 83 bd b7 dd ec bd 44 59 f8 bb
       -0.073531635 -0.064291455 -0.11565726 -0.0075790007
000380 e3 41 34 bd 04 06 0d 3e 7b e0 70 3d 54 13 df 3c
       -0.044008147 0.13771826 0.05880783 0.027230896
000390 b0 f1 21 bc 0f df 23 3d 95 95 91 3c 2b f8 87 3d
       -0.009884283 0.040007647 0.017771522 0.06639131
0003a0 f9 3d c0 3d 14 c8 5e 3c a1 73 44 3e d2 9a f7 bd
       0.0938682 0.013597507 0.19184734 -0.120900765
0003b0 41 ff ba bd 36 86 34 3d 59 3f 01 3e 70 69 49 3e
       -0.09130717 0.044073306 0.12621821 0.19669127
0003c0 fa bc ff bd e3 a6 8a bd 91 2e 03 be 4b e4 15 bc
       -0.12487216 -0.06770112 -0.12810732 -0.009148668
0003d0 49 a1 0c 3e 1c 27 a6 bb da f8 92 bd 6e 48 0f bd
       0.137334 -0.00507058 -0.07176371 -0.034981184
0003e0 e7 73 6f bd 57 c9 d4 3c 2d 5c 64 bc 5e c8 a4 bd
       -0.058460142 0.025974913 -0.013937992 -0.080460295
0003f0 6f 4d 4f 3d b0 f8 32 3d 57 5e b9 3c e8 1f 57 3d
       0.050610956 0.043694198 0.022627993 0.052520663

conv2.bias f4 [16]
000000 75 c8 5e 3d a2 da 44 3e 87 7a af bc 1d 4b 4c bd
       0.05439039 0.19224027 -0.02142073 -0.04987632
000010 31 5e 86 3c 3e 45 d7 3d 61 d2 d1 3c 83 ad f5 3d
       0.016402336 0.10511254 0.025613012 0.11995985
000020 06 97 74 bd ed 2f 8c bd f0 30 1f 3d 41 a0 a1 bc
       -0.05971434 -0.068450786 0.03886503 -0.019729735
000030 e9 59 fc 3a 5b 40 f0 3c 8d ad 9c ba 91 d8 3d 3d
       0.001925287 0.029327562 -0.0011953578 0.046349112

fc1.weight f4 [120, 256]
000000 6d c6 ac 3c 24 ed d0 3d 73 6b 4e 3d 35 8e ab bb
       0.02109071 0.10201481 0.05039544 -0.0052354583
000010 fc 53 f8 ba 59 b9 44 3c a7 d6 b5 3c c8 52 86 3d
       -0.0018945928 0.012007081 0.02219708 0.06558758
000020 88 97 15 bc 6e 46 0b 3d bf 96 c2 3c c3 bb 57 3d
       -0.009130366 0.034002714 0.023753522 0.052669298
000030 6b 04 a8 bd e8 0e 78 3d 01 4a 1a bd 11 fc 95 bc
       -0.08203968 0.06056109 -0.037668232 -0.018308671
000040 54 5c 2d 3d 87 de 09 3d 86 25 84 3d 54 27 8b bb
       0.04232438 0.033659484 0.064524695 -0.0042466316
000050 29 8e 19 3d 03 20 fc 3c 27 dd 09 3d e5 4a f2 bc
       0.03748909 0.030776983 0.033658173 -0.029576728
000060 8c 58 37 bb e9 51 01 3c 73 02 37 3d 5c d2 20 3d
       -0.0027976362 0.007893064 0.04468007 0.039263114
000070 2d 15 54 3d b1 95 c1 bc b3 da f9 3c 69 26 bf 3d
       0.051778007 -0.023630949 0.030499792 0.09333498
000080 29 cd 1d 3d c5 c4 86 3d b8 78 5d 3d 6f 8b 25 bd
       0.038525734 0.065804996 0.054070204 -0.040416177
000090 c3 3e ba bb a6 1d 21 3c d3 46 66 3b 76 aa ae bc
       -0.0056837513 0.009833729 0.003513743 -0.021321516
0000a0 d6 da de bc b1 50 37 3d 3f 90 7b 3c 77 74 76 bd
       -0.027203958 0.044754688 0.015354215 -0.060169663
0000b0 c7 5d ce bc ff 42 a8 bc 4b 00 f1 bb 0a 89 95 bd
       -0.0251912 -0.020539759 -0.0073547713 -0.07301529
0000c0 df b2 85 bd 38 72 cf 3c 06 04 2f bd 39 8a ef bb
       -0.065282576 0.025323018 -0.042728446 -0.0073101786
0000d0 91 55 08 bd 42 59 08 bd b0 3a 9f bc 39 09 2d bd
       -0.033284727 -0.033288248 -0.019437164 -0.042245124
0000e0 84 81 44 3c ef 36 07 3d a8 b8 bb bb 74 0d 53 bd
       0.01199377 0.033011373 -0.0057288 -0.0515265
0000f0 15 eb 8a 3b 87 7e 47 3c 84 f8 93 bd b6 61 48 3d
       0.0042394497 0.012176163 -0.07225135 0.04892131
000100 e3 9b f6 bc 2e dd 6f 3c ef 5f 2a bc 59 0c db 3c
       -0.03010363 0.014640136 -0.010398849 0.026739286
000110 c6 4c 9b bc 1e 15 7d bd 0a 53 9d 3c 1b 50 a0 bc
       -0.018957507 -0.061787717 0.019204635 -0.019569447
000120 b1 46 4f bd ca d1 c9 3c 91 bf 84 bd 81 f5 08 3c
       -0.050604526 0.024636168 -0.06481851 0.008359314
000130 0b 8e 64 bc 02 d1 89 3c 14 a0 55 3d 8c 33 68 bd
       -0.013949881 0.016823296 0.052154616 -0.056689784
000140 60 31 a1 bd 72 1e 0a 3b 9a e7 fe bc 67 31 02 bc
       -0.07870746 0.0021075276 -0.031116296 -0.007946349
000150 c4 67 56 bd c0 c2 49 3c 3b fb bd 3b 35 79 ca bc
       -0.052345052 0.012314498 0.0057977713 -0.024716
000160 98 fe 8a 3c dc 2c c0 3c 9d 5b 06 bd 71 be c1 3a
       0.016967103 0.02345889 -0.032802213 0.0014781487
000170 ca be 91 3d a5 3e 3a bc d5 13 a5 3d 4c e7 f3 3d
       0.07116468 -0.011367475 0.08060423 0.11909351
000180 6a c0 25 bc 8b fa 73 3d b2 c0 34 3d 7d f0 07 3c
       -0.010116676 0.05956511 0.04412908 0.008297083
000190 ec a5 6e bd 99 f6 78 bd f7 04 1f 3d 12 53 c4 3c
       -0.058263704 -0.06078205 0.038823094 0.023965392
0001a0 7a b4 70 3d 76 c2 f8 3b f6 08 22 bd 62 bc c7 3b
       0.058765866 0.007591541 -0.039559327 0.006095455
0001b0 8e 48 02 3d ce 75 54 3d 65 9c e3 3c 0f 75 90 3d
       0.031807475 0.05187016 0.027784536 0.07053577
0001c0 af b6 4b 3d 02 8b 6f 3c c7 7f 23 bc 99 5a 4c bd
       0.049734768 0.014620544 -0.009979195 -0.04989109
0001d0 73 48 a1 bd 03 c6 3f bc 22 96 39 3d 92 f8 2b 3d
       -0.07875147 -0.0117049245 0.045309193 0.041985102
0001e0 4e ed a8 3c 4d 1d 23 3d 51 c7 a0 3b 7f 18 a0 3d
       0.020620968 0.039822865 0.004906573 0.07817172
0001f0 63 b3 1c 3c ff 9d 36 b8 69 ea ff bc 84 ab ba 3d
       0.0095642535 -4.3539327e-05 -0.031239705 0.09114745
000200 44 78 dc bc 1d c6 6d bd 7b e7 5d bd 0c 09 2c bd
       -0.026912816 -0.058050264 -0.054175835 -0.042000815
000210 c2 04 8d bd 3b 9e 19 bd 09 62 24 3d 95 68 85 bd
       -0.06885673 -0.037504416 0.040132556 -0.06514088
000220 15 85 4a 3c 23 5a 34 bd 11 c6 a8 bd 15 52 98 bd
       0.012360831 -0.044031274 -0.08240903 -0.07437531
000230 95 71 0b 3d 32 bd 2c 3d fc 06 5a bd f0 7f 1d 3d
       0.034043867 0.04217262 -0.053229317 0.03845209
000240 51 f8 e4 3c c9 3d 0b 3d 2a 02 56 3c ee 09 53 3a
       0.027950438 0.03399447 0.013062039 0.0008050491
000250 41 4a 81 3b 52 37 bd bc 7f 13 04 bd 74 92 98 3c
       0.0039456193 -0.023097668 -0.032245155 0.018624522
000260 ae fd 53 bd 39 bb 1a 3d 3e 47 25 3d b1 bb 1a bc
       -0.0517556 0.037776206 0.040351145 -0.009444163
000270 15 65 30 3d b5 92 6f 3d 2f 06 5e 3c 3e 78 3d bd
       0.04306515 0.05848952 0.013551279 -0.04625725
000280 e5 35 46 3d 04 63 23 3c 4c ca aa 3c b1 7f fc 3c
       0.04839124 0.009972338 0.020848416 0.030822607
000290 de d9 26 3d 40 89 8c bd a7 7b 98 bd 59 5a 68 3d
       0.040735118 -0.06862116 -0.0744546 0.056726787
0002a0 3b b4 8e 3c 0d 75 5c 3d c5 11 54 bd 3b d5 65 3d
       0.017419925 0.053822566 -0.05177476 0.056111556
0002b0 fb 0f 2b bd 2b 80 1d 3d 51 cb 88 bc f4 62 62 3d
       -0.041763287 0.03845231 -0.016698511 0.05527015
0002c0 e1 9b f0 bc b6 cd 16 bd 7d 0c 8d 3d 19 d7 98 b9
       -0.029371204 -0.036817275 0.068871476 -0.0002915196
0002d0 8a 25 59 bd fb ec 31 3d 27 49 95 3d 18 c6 d9 3b
       -0.053014316 0.043438893 0.07289343 0.006645929
0002e0 0e 16 dd bb 0c 08 1b bd 41 7f 84 bd 93 c5 56 bc
       -0.006747014 -0.03784947 -0.06469584 -0.013108629
0002f0 48 37 c1 bc 8a 93 f9 bc 53 74 26 bd ff 4f d0 bc
       -0.02358593 -0.03046586 -0.04063828 -0.02542877
000300 45 66 af 3c c6 c2 db bc 38 10 e0 bc 66 c0 a7 bb
       0.02141107 -0.026826274 -0.027351484 -0.005119371
000310 04 a4 4d bd 05 1b 56 ba 4a 14 8c 3d 02 c3 af 3c
       -0.050205246 -0.00081674784 0.06839807 0.021455292
000320 9f 3c 98 bd 1a 47 78 3b e9 75 5f 3d 5c 52 80 bc
       -0.074334376 0.0037884177 0.054555807 -0.015664272
000330 c9 1b 2b bd 0c 39 89 3c e4 e0 fd bb 03 de a1 bc
       -0.041774545 0.016750835 -0.0077477563 -0.019759184
000340 dd 0d 1d 3d 98 19 83 3d a8 31 4e bd 55 1d db bc
       0.0383433 0.06401366 -0.050340325 -0.026747385
000350 1d 71 5e bd 75 0a 98 3c d5 ce 26 bd f2 06 47 bd
       -0.054307092 0.018559674 -0.040724594 -0.048590608
000360 5f 53 17 3d e7 c6 ac 3c 98 50 26 3d 7f 4d 8c 3c
       0.036944743 0.021090938 0.040604204 0.017126797
000370 0d 67 b3 bc 85 48 0f bd 22 d9 83 bd c0 af 4f 3d
       -0.021899724 -0.03498127 -0.06437899 0.050704718
000380 0a f9 3f 3d ac ad 6b 3d b5 05 80 3d f3 b1 73 3d
       0.04686836 0.057538673 0.062510885 0.059495877
000390 97 04 22 3c 42 43 14 3c d9 f9 7a bc ca fe 58 bc
       0.00988879 0.009049239 -0.015318357 -0.01324434
0003a0 b1 5a 1c 3d 10 9f 48 3c be 31 5d bd c9 88 00 bd
       0.038172428 0.012244955 -0.054002516 -0.03138045
0003b0 92 b9 09 bc 51 ce 30 3d 2f c2 42 3c 4d 07 27 bc
       -0.00840606 0.04316551 0.011887117 -0.010194612
0003c0 5a d8 0f 3d 6a 08 86 3d 36 aa 93 bd 00 4e 66 bd
       0.03511844 0.065445736 -0.072101995 -0.05622673
0003d0 c8 4f 9d 3a e6 9f 97 3c 3b 77 ca bc 80 be 9e bd
       0.0012001926 0.018508863 -0.024715057 -0.07751179
0003e0 eb 33 a2 bd f5 17 22 bd 56 61 9b bd d2 69 d8 ba
       -0.07920059 -0.03957363 -0.07586925 -0.0016511029
0003f0 7f 53 3f bc 93 ed 08 bd 33 e1 e5 bc b5 cf ff 3c
       -0.011677622 -0.033429693 -0.028061485 0.031226972

fc1.bias f4 [120]
000000 7c 3a 12 3d 85 0a 2a bc a8 c7 82 bd f7 81 b2 3c
       0.035700306 -0.010378485 -0.06385738 0.021790488
000010 05 dd 9c 3d c2 09 15 3d 05 be 8a 3d 45 48 14 3d
       0.07659344 0.03638626 0.067745246 0.036201734
000020 13 a0 8d bd 5a ff 92 3b f3 17 69 3d 17 b5 e4 3c
       -0.06915297 0.0044860067 0.056907605 0.027918382
000030 3a 80 8d bc 40 b3 7d bd 69 a5 23 3d 82 92 55 bb
       -0.017273057 -0.061938524 0.03995267 -0.0032588546
000040 96 50 9b 3d e9 7a 9d 3c 7d de 6a bc 69 81 0d 3d
       0.0758373 0.019223647 -0.014335272 0.034547243
000050 b7 f4 b0 bc fd 14 9d bc 4f 6e 88 3d ce 6d f3 3b
       -0.021601064 -0.019175047 0.06661665 0.007428861
000060 9b 0c 15 3d 70 f0 fe bc c9 b3 29 bd 0a 2c 68 3d
       0.036388975 -0.031120509 -0.041431222 0.056682624
000070 2b 99 2b 3d 2a 9a 99 bb fd b4 3a bd f7 d5 49 3d
       0.04189412 -0.0046875672 -0.04558276 0.04927632
000080 6e ef 86 3d b9 32 4c 3d a3 5a 80 bc 2d 9d 96 bc
       0.06588636 0.04985306 -0.015668219 -0.018385494
000090 15 09 89 3c 64 ac f3 3c 24 ec 9b bc ba 9b 34 bd
       0.016727963 0.029745288 -0.019033499 -0.044093825
0000a0 04 cc ae 3c a6 99 ea bc cb 93 8b bc 30 61 3c bd
       0.021337517 -0.028637718 -0.017038247 -0.045991123
0000b0 73 a3 bd bc 91 81 8c bc 5f 4d 73 bd 57 fa e0 bc
       -0.023149228 -0.017151626 -0.05939996 -0.027463121
0000c0 2d a9 83 3d 88 4e 04 bd 52 30 1c 3d 61 33 80 3d
       0.06428752 -0.032301456 0.03813202 0.062598
0000d0 e5 0e ab 3d e0 7e 17 bd 14 df 7e bd 87 8c e1 3c
       0.0835245 -0.03698623 -0.062224463 0.027532829
0000e0 6b 21 49 3d 70 17 06 bd d7 11 1a 3d fb 58 b7 3b
       0.049104135 -0.032737195 0.03761467 0.005595324
0000f0 18 87 39 bd 2f 5b 95 bc 76 f9 30 3d c8 ee a2 3c
       -0.04529485 -0.018231956 0.043206654 0.01988925
000100 c7 49 03 3d 56 e1 48 bd d5 3b ba bc 89 07 fc 3c
       0.03205278 -0.049043022 -0.022733608 0.030765312
000110 9f 1f c8 bc 16 60 ed 3c e7 fc db 3c 4c fc 6b bd
       -0.02442914 0.028976481 0.026853992 -0.057613656
000120 65 b2 e3 bc 17 6a 2c 3d 54 8b 1c bd 5f 11 79 bd
       -0.027795026 0.042093363 -0.03821881 -0.060807582
000130 05 36 33 3d 52 c3 67 3c b8 d8 1a 3d 3b 1c 91 3b
       0.04375269 0.014145689 0.037804335 0.004428414
000140 4e 20 19 bd bf 68 f1 3c 70 83 01 3d fd 59 49 bd
       -0.037384324 0.029468892 0.03161949 -0.049158085
000150 f6 84 26 3d d2 95 64 bc cc 82 8e bb 5b f5 6d 3d
       0.040654145 -0.013951736 -0.0043490883 0.058095317
000160 a6 11 3a 3d 40 38 c1 bb 00 8b 12 3d ef 19 58 3d
       0.045426987 -0.005896598 0.035777092 0.052759107
000170 0b 59 84 bc d7 8b 83 bd 40 75 ac 3c 5f 0f cb bc
       -0.01615574 -0.06423157 0.021052003 -0.024787603
000180 56 da 70 3d 08 c7 37 3d e1 74 0f 3d 66 b3 9c 3c
       0.05880197 0.044867545 0.035023574 0.019128513
000190 2c 35 83 bc 51 e1 e0 bb 2e d1 2a 3c 13 49 39 3d
       -0.016016565 -0.0068627973 0.010425849 0.045235705
0001a0 69 72 53 3c a9 a2 45 bd 6f ec 52 bd f6 57 5b bb
       0.0129056955 -0.048250828 -0.051495012 -0.0033469177
0001b0 fb 29 f5 bc 38 39 21 bd 89 e1 63 bd f2 0e 82 3c
       -0.029927244 -0.03936121 -0.05563501 0.015876267
0001c0 05 2e 7a 3c 5f 16 96 3a a5 27 42 bc 45 0c 9e 3d
       0.015269761 0.0011450759 -0.011850272 0.07717184
0001d0 76 ea 9e 3b a1 10 9c bc f4 48 9f 3c 6e 5b 61 bc
       0.0048497273 -0.019050898 0.019443966 -0.013754709

fc2.weight f4 [84, 120]
000000 57 f5 d5 bc d6 7e 67 3d 77 69 97 3d 1a e6 d9 3d
       -0.026117964 0.056517445 0.07393163 0.106395915
000010 14 76 3d 3d 51 a9 01 be f1 16 f6 bd b8 00 b3 3d
       0.046255186 -0.12662245 -0.120160945 0.087403715
000020 17 63 0d 3a c7 1f 45 3c 2f 25 53 3d 7d 8a 85 bd
       0.00053934887 0.012031502 0.051549133 -0.06520555
000030 8a 60 f5 bd 43 d5 e3 bc de ae 69 bd 62 27 69 bc
       -0.11981304 -0.027811652 -0.057051532 -0.014230581
000040 7b 06 ba 3d 26 f4 4b 3d 8b 7f 97 3d 44 b7 79 bd
       0.09083267 0.049793385 0.07397374 -0.06096579
000050 0d e5 54 bd f9 c5 b9 3d ba 5f a2 bd d7 f6 47 bd
       -0.051976252 0.090709634 -0.07928415 -0.04881939
000060 1d 0a 04 3e 36 f7 47 bd 8b 25 5b 3d 73 63 e3 3c
       0.12894483 -0.048819743 0.0535026 0.027757382
000070 0e 87 87 bd 44 6c b7 bc 41 4a b3 3c ce 01 b0 3d
       -0.066175565 -0.022390492 0.021885993 0.08594094
000080 69 2e f7 bc 72 87 05 3d d3 bb 29 ba 00 7e c0 3d
       -0.030173497 0.032599874 -0.00064748264 0.093990326
000090 82 4f 8c bd ad 3e 0f bd d2 c5 c9 b8 aa 64 97 bd
       -0.068511024 -0.03497188 -9.621274e-05 -0.07392247
0000a0 05 2c 4e bc 30 a3 07 bb 61 e3 99 bd 1b dc 84 3d
       -0.012583737 -0.0020696633 -0.07514072 0.06487294
0000b0 2e 57 21 3d df 29 94 bc 10 d8 29 3c 8c f8 53 3d
       0.03938978 -0.018086372 0.010366455 0.051750705
0000c0 01 32 b9 bd 1c 01 1e 3d 26 c1 9a bd ef ca 02 be
       -0.090427406 0.038575277 -0.075563714 -0.12772726
0000d0 37 e3 95 3d 0a b6 77 bd 6d d2 3f 3c 3e 62 1a 3d
       0.073187284 -0.06047634 0.011707884 0.037691347
0000e0 e3 89 aa bd ad 24 2f bd 7a 37 94 3b 9a 0a 9f bd
       -0.08327081 -0.042759586 0.004523215 -0.07765694
0000f0 89 5e a4 3d f4 3c 91 bc f4 4f ec 3c 84 e2 fb 3b
       0.08025844 -0.01772926 0.028846718 0.007686915
000100 5f 72 b5 bc 3b cb a0 bd 00 d5 55 3d 5a 81 7d 3d
       -0.022149263 -0.07851263 0.052205086 0.061890937
000110 25 45 9b 3d 30 e4 f7 3d 62 6a 3f 3d 8a 73 b3 3d
       0.07581548 0.1210407 0.046732314 0.08762272
000120 83 fd 6a bc f8 3c 8e 3d 5f d7 8f 3d 31 a0 e6 bc
       -0.0143426685 0.069452226 0.07023501 -0.028152557
000130 a5 c2 ba 3c ee f6 91 3d 02 68 b1 bb cb 03 48 bc
       0.022797892 0.07127176 -0.00541401 -0.012207936
000140 36 ca 94 3d 1c 1e 46 3d 20 f5 c7 3b 9e 3a 46 3d
       0.07265131 0.04836856 0.006102219 0.048395745
000150 11 d8 a9 3d fb af 87 3d 24 88 67 3d 66 35 c9 bd
       0.082931645 0.066253625 0.05652632 -0.09824638
000160 57 85 5c 3d 0b 48 94 3c 54 11 c1 bd a9 d2 98 3d
       0.0538381 0.018100759 -0.09427133 0.07462055
000170 8e bb 6f bd 4d 7f b0 bd 12 36 06 3b 3c 2e c8 3d
       -0.058528475 -0.08618031 0.0020479006 0.097744435
000180 ce 69 9a 3d 16 c3 dd bc bd 19 66 3d bd d5 aa 3d
       0.07539712 -0.027070563 0.05617689 0.083415486
000190 bf ee 91 3c 35 ce 45 3d fb a7 a0 bc 5a f0 a0 bd
       0.017814038 0.048292357 -0.01961135 -0.078583434
0001a0 bf ad 1a bd 78 26 8b 3d 50 02 7b bd 25 08 9c 3d
       -0.037763353 0.06794447 -0.061281502 0.07618741
0001b0 44 92 97 bc 04 58 72 3d 52 d7 3f bd bf b7 c2 3c
       -0.018502362 0.05916597 -0.046836205 0.023769258
0001c0 74 0b af 3d f6 71 ac 3d b0 6f b4 bc d4 f5 8c bc
       0.085471064 0.08420174 -0.022025913 -0.017207064
0001d0 9c 1b 83 3b 89 7a 21 bb 44 4f 8d 3c 99 a2 47 3d
       0.004001094 -0.0024639687 0.01724971 0.04873905
0001e0 81 8e 59 3d 1f 79 95 bb d9 ba 98 bd 06 aa 45 bd
       0.053114418 -0.004561558 -0.07457513 -0.04825785
0001f0 39 3e de bc 5a 67 25 3d 40 f2 59 3d a9 83 be 3d
       -0.02712928 0.040381767 0.053209543 0.09302456
000200 1c db a0 bc 68 11 e9 bd d4 ee 37 bd d8 f4 5b bd
       -0.01963573 -0.11380273 -0.0449055 -0.053700298
000210 e3 53 22 bd 0c d3 63 bd 8c a9 b1 bc 2d 41 6a 3d
       -0.03963078 -0.05562119 -0.021687292 0.057191063
000220 96 20 f5 3d 35 05 e0 bc 08 d6 b0 bd b5 84 9b 3c
       0.11969106 -0.027346233 -0.08634573 0.018984178
000230 d6 8d 54 bd df 25 e3 3d 5b 0a 80 bc 7f a3 f6 3c
       -0.051893078 0.11091208 -0.015629938 0.030107258
000240 89 38 5e bd 67 93 71 bb 71 e6 50 3b a0 46 35 3d
       -0.054253135 -0.003686154 0.0031875635 0.044256806
000250 1d 27 08 3e f2 c8 1e 3c f1 8d 04 bc f5 49 8c 3d
       0.1329617 0.009691464 -0.008090482 0.06850044
000260 fd b9 d5 3d 93 45 3f bd 8a cb cc bd ab fc 7e 3d
       0.10435865 -0.04669721 -0.099997595 0.06225268
000270 2d ef 12 bc 28 11 8c bd cf 75 96 bb 52 50 c9 3d
       -0.008968157 -0.0683921 -0.0045916806 0.09829773
000280 93 47 3c 3d eb 72 ab 3d 31 8d fa 3c b0 99 8f 3b
       0.045966696 0.08371528 0.030584903 0.0043823346
000290 71 47 91 3d 8a ff 72 bc a0 9d 49 3d 4e 2f 03 bd
       0.070937045 -0.014831433 0.04922259 -0.032027535
0002a0 0c 69 d3 bd f6 0c 37 3d a5 d1 3f 3d ae 32 10 bc
       -0.103227705 0.044690095 0.046830792 -0.0088011455
0002b0 99 1c ac 3d e3 36 4c 3d 86 49 b5 3c 32 c9 3f 3d
       0.08403892 0.04985703 0.022129785 0.046822734
0002c0 a4 5a 3f 3d 14 57 52 3d af 19 96 bd 5e 91 05 bc
       0.0467173 0.051352575 -0.073291175 -0.008152334
0002d0 a8 33 b4 3d 85 18 59 bd 0f b8 c5 3c 18 98 ac bd
       0.08798915 -0.0530019 0.024135618 -0.08427447
0002e0 4d 67 9c bd a7 b8 9d bd 0f e7 e2 3d 66 58 7f bc
       -0.076368906 -0.07701235 0.11079227 -0.015585041
0002f0 09 29 16 3d 05 e6 0e bd c2 7b 37 bd d3 78 61 3d
       0.036660228 -0.034887332 -0.04479576 0.055046868
000300 5a d1 8b 3c 0a 69 f1 3d e9 19 a3 3c 35 7b 99 bd
       0.0170676 0.11787613 0.019909816 -0.07494203
000310 da 09 91 bc 2f c7 7a 3d e4 41 c6 3d 72 35 28 bd
       -0.017704893 0.061225113 0.096805364 -0.041066594
000320 d4 bf c8 3d 8b 45 fe 3d 62 fb 0f 3d a0 1d d8 bc
       0.09802213 0.12415608 0.035151847 -0.026381314
000330 c6 84 e8 3d f0 d1 dc 3b 4e c6 86 bc 30 27 a1 bd
       0.113534495 0.0067388937 -0.01645198 -0.078688025
000340 8e 7e 29 bb f5 fc 3c 3d a7 b2 a7 bd a6 1d 47 3d
       -0.0025862786 0.046139676 -0.08188372 0.04861226
000350 b9 c7 9e bd e4 69 b6 3d 74 2b 26 3c 57 76 ff bc
       -0.07752938 0.08906916 0.010142196 -0.031184359
000360 49 1e 71 bd 11 b7 93 bd 35 27 be 3c 69 e8 ed 3d
       -0.058866773 -0.072126515 0.023212055 0.11616594
000370 77 ed 5b bd 81 d4 24 bd 0a 5a 82 bc 3e e0 89 bb
       -0.05369326 -0.040241722 -0.015912075 -0.00420764
000380 88 ca 5d ba 89 88 d1 3d 60 53 07 3d ad c8 5d 3d
       -0.00084606605 0.1023112 0.033038497 0.054146457
000390 7e d6 b3 3c 6f a3 33 bd 50 92 bf bd 08 22 8f 3d
       0.021952864 -0.043857034 -0.09354079 0.06988913
0003a0 f2 18 1e bd 16 25 28 3d 91 61 c6 3c 62 17 09 3e
       -0.03859801 0.041050993 0.024216445 0.13387826
0003b0 53 d2 cd 3d 14 b5 b2 3d 30 35 3f 3d bc 5b a9 3d
       0.10049882 0.08725944 0.046681583 0.0826945
0003c0 af 4b 85 bd 8e 3e 1d 3d 20 39 3e 3c e3 7a cf 3c
       -0.06508576 0.038389735 0.011610299 0.025327152
0003d0 b0 a7 a5 3c 94 95 b0 3d 8d d8 58 b8 d0 fd 8e bd
       0.020221561 0.0862228 -5.170009e-05 -0.06982005
0003e0 6b b4 a2 bd aa 68 76 bd 5d dc 62 bd e1 da af bd
       -0.07944568 -0.06015841 -0.055385936 -0.0858667
0003f0 84 1a aa 3c 89 12 0e 3d 70 35 40 bd 4f da 78 3d
       0.020764597 0.034685645 -0.046925962 0.06075507

fc2.bias f4 [84]
000000 1d 39 1b bd 60 5c d2 3c 9c b9 06 bd f4 d8 04 3d
       -0.037896264 0.025678813 -0.032891855 0.032433465
000010 2d b2 1d 3d 80 06 41 bd bc 8f 04 bd fc ca 5a 3d
       0.0385 -0.04712534 -0.03236364 0.053416237
000020 d1 98 06 bc ba a1 1d bd 8d c1 b8 bd d6 91 9d 3d
       -0.008215145 -0.038484313 -0.09021292 0.076938316
000030 aa 2b 94 bd 50 12 28 3c ac 47 fc 3d ca fe 4f 3d
       -0.07234891 0.010258272 0.12318358 0.050780095
000040 99 38 08 bb b3 86 93 3d dc a3 82 bb 96 2b a7 bd
       -0.0020785688 0.07203426 -0.0039868187 -0.0816261
000050 c0 40 fa 3d 15 ce b0 bd 9c e7 1a bd f8 ad cb bc
       0.12219381 -0.08633057 -0.037818536 -0.024863228
000060 86 85 d5 bd 89 99 36 3d 01 2b cd 3d 51 7a 81 3d
       -0.10425858 0.044580016 0.10017968 0.06322158
000070 e9 cd a0 bd d2 e2 02 bc c6 6f 91 bd 2e 29 a2 bd
       -0.07851774 -0.0079886485 -0.07101397 -0.07918011
000080 83 62 67 bd 5d 17 58 bb 33 12 ca bd 8d 44 77 3c
       -0.056490432 -0.003297291 -0.098667525 0.015092027
000090 91 64 a6 bd 94 dc 3d 3d 72 1f 0a 3d 02 b2 b1 bd
       -0.0812465 0.046352938 0.033721395 -0.086765304
0000a0 11 cd 4d 3d a8 7e 3d 3d d8 2f 3f bc 20 bd 83 3d
       0.050244395 0.046263367 -0.011669122 0.06432557
0000b0 01 10 9a bc d6 10 52 3b e2 bd 73 bd 9a 65 26 bd
       -0.01880646 0.0032053492 -0.05950726 -0.04062424
0000c0 62 37 65 3d dd f9 13 bd e6 8d 6a 3c f6 0c ba bd
       0.05596102 -0.03612696 0.014316058 -0.09084503
0000d0 8b cb 9c 3d cd 08 b4 bd 3a 9f 8a bd 46 44 31 bd
       0.0765601 -0.08790741 -0.06768651 -0.043278
0000e0 8a 97 bc 3d 30 69 bd ba 8d a3 89 3c 46 bd 88 bc
       0.09208591 -0.0014450904 0.01680162 -0.016691815
0000f0 23 23 10 3d fe 18 cf bc 74 2f e7 bc 6a 1e 90 bc
       0.03518976 -0.025280472 -0.02822087 -0.017592628
000100 72 72 75 bd 1c 32 89 3d 58 f3 45 bc 1f 5c c4 bc
       -0.059923597 0.06699011 -0.012081943 -0.023969708
000110 df 55 cf bc 53 04 de 3c 7a 7f 23 3e 71 88 b2 3a
       -0.025309501 0.027101671 0.15966597 0.0013620985
000120 ed 7c 29 bc 8c 96 ea 3c 97 ed 55 3d 62 e2 0b 3e
       -0.010344726 0.02863624 0.052228536 0.13660577
000130 ca d3 9c 3c 4c f1 b5 3d c4 d7 ae bd 50 ec 27 bc
       0.019143958 0.08883914 -0.08537248 -0.010249212
000140 fc 36 1b bd b6 29 c0 3c 8b 1c 57 3d 5d 39 17 bd
       -0.037894234 0.02345739 0.052517455 -0.03691994

fc3.weight f4 [10, 84]
000000 cc b7 c2 3d be 1c d5 3d d0 6b b9 3d 53 f7 1d be
       0.09507713 0.10405873 0.09053767 -0.15426378
000010 ed d7 73 3e fb 61 0f bd 5f a9 5c 3e 85 10 bb 3d
       0.23812838 -0.03500555 0.21548985 0.0913401
000020 22 00 48 bc b2 bc 86 3e 50 2b 5e 3c fd fb b4 bd
       -0.012207063 0.26315838 0.013560131 -0.088371255
000030 99 cb 09 be ce a2 28 be a9 59 3f 3d cf 24 81 bb
       -0.13456573 -0.16468355 0.046716366 -0.0039411555
000040 0a 08 d6 bd bb 9c 74 3d 28 34 54 3e 09 a9 1d 3c
       -0.10450752 0.059719782 0.20723021 0.009622821
000050 c1 fc eb 3d af d8 26 be 5d 01 25 bd 25 62 48 3d
       0.11522818 -0.16293596 -0.040284503 0.048921723
000060 87 50 c8 3c 2c 21 1d be 9f 16 a5 3d cf 45 94 bd
       0.02445246 -0.15344685 0.08060955 -0.072398774
000070 18 1e de bd 5b 8d c7 3d 5e 79 d4 bd cb 0c cc 3d
       -0.10845584 0.09743758 -0.103747115 0.099633776
000080 d3 8d 89 bd 62 e1 86 3d 17 d3 2d 3d 38 55 00 bd
       -0.06716504 0.06585957 0.04243764 -0.03133127
000090 d5 57 42 bd 53 34 ec bd c3 f7 a9 bd ff ee 31 3e
       -0.047447044 -0.115334176 -0.0829921 0.17376326
0000a0 05 38 30 be bf 4a cf 3d dc 0c 2f 3e ed 93 24 bd
       -0.1720887 0.101216786 0.17094749 -0.040180136
0000b0 d1 49 8c bd 99 1a c1 3c 95 de 09 bb 49 0a 02 be
       -0.06850017 0.023572253 -0.002103721 -0.12699236
0000c0 b5 39 19 bd 50 a0 57 be 62 9c 21 bd b4 75 f4 bc
       -0.03740855 -0.21057248 -0.03945578 -0.029841281
0000d0 92 db d6 bc 08 c7 fb bd a9 3f 76 bd ba 6a d5 bb
       -0.026227746 -0.122938216 -0.060119305 -0.006512967
0000e0 8a e3 bb 3d 8b fe 8c bb 19 b9 11 3e 6e cd f8 3c
       0.09174259 -0.004302805 0.14230765 0.030371394
0000f0 ec 5b 8a 3d 77 08 b4 3d c7 6a ba 3c 4d bc d9 bd
       0.06755814 0.08790677 0.022755994 -0.10631619
000100 c0 3b 68 bd 11 53 1f bd ee 51 c2 bd 2b 3b 55 3d
       -0.056697607 -0.038897578 -0.09488283 0.05205838
000110 43 5f bf bd 0c 19 c5 bd 80 59 f0 3d bf 6c 1d 3e
       -0.093443416 -0.09623918 0.11735821 0.15373515
000120 ef 14 c6 3d 77 fb 58 3d 33 45 10 bd fb d7 9b bd
       0.096719615 0.05297419 -0.035222244 -0.076095544
000130 06 35 fb 3d 21 d5 86 3e fa a1 c1 3d d0 b1 dd bd
       0.12265973 0.2633448 0.09454723 -0.10824931
000140 e5 4f 89 3d c0 5a c9 bd 8f a6 3c 3d 61 15 f1 3c
       0.06704692 -0.09831762 0.04605728 0.02942914
000150 d9 ce d1 bd f4 52 80 be e7 4b cc bd ea 97 9c bd
       -0.10244531 -0.25063288 -0.09975415 -0.07646163
000160 23 47 03 3e 7d 8a 46 bc 6f f0 61 bc 38 e4 ec bd
       0.12820105 -0.012117979 -0.013790234 -0.11566967
000170 70 6d 7c bd 36 0f 29 3e 30 42 87 3d 9e 89 cb bc
       -0.061627805 0.16509709 0.06604421 -0.024845894
000180 7e ba 61 bd 2c 27 aa bd 15 87 ce 3d 22 b3 b1 bd
       -0.055109493 -0.08308253 0.100843586 -0.08676745
000190 28 4a ba 3d 44 4d a5 bd 63 65 46 bd 8f 7e 7f bd
       0.090961754 -0.08071378 -0.048436534 -0.062376555
0001a0 51 bb 9a 3d 8b 0a 13 3c 77 35 4e be cc 30 96 bd
       0.07555259 0.008974682 -0.20137583 -0.07333526
0001b0 23 d6 81 3d e0 70 a2 3e 54 aa 9b 3d 1d bd b1 3c
       0.063396715 0.31726742 0.07600847 0.021696622
0001c0 d2 37 b1 bd 3f dd 28 bd 54 85 29 3e a8 d6 0f 3d
       -0.08653225 -0.04122662 0.16554767 0.03511682
0001d0 f0 b6 67 3d df b7 d9 bd 8e 28 23 3e 63 54 ba bd
       0.056570947 -0.10630774 0.15933439 -0.09098127
0001e0 92 a3 e5 bd d6 81 67 3e 58 b6 7d 3b 08 a1 7a be
       -0.11212839 0.22608122 0.0038713422 -0.24475491
0001f0 06 c6 8a bd 72 d4 1c bc 3e 2d cc bd 59 36 1f 3e
       -0.06776051 -0.009572135 -0.09969567 0.15548076
000200 a7 79 de bd fa 55 5d 3e 85 25 d8 bd 87 2f 01 be
       -0.10863047 0.21614829 -0.10554031 -0.12615786
000210 b6 2f ac 3d b5 3b 35 3e 81 c6 2a 3e a3 f8 dc 3d
       0.08407538 0.17698558 0.16677286 0.10789611
000220 63 50 cf bc 58 16 18 3e e1 13 6c bd ee d2 a8 3d
       -0.025306886 0.14852273 -0.057636146 0.08243357
000230 1c 41 7c bd 93 08 6b 3e c8 b8 d6 bd c4 00 8f 3d
       -0.06158553 0.2295249 -0.10484463 0.06982568
000240 e3 76 4c 3e 6d 0f 9c 3c 3a 8c 86 3c 66 04 6d bb
       0.19967227 0.019050324 0.016424287 -0.0036165952
000250 62 2e bd bd 42 c0 87 3e 5f 50 c2 bd 0e 28 d8 3d
       -0.092373624 0.2651387 -0.09487986 0.10554515
000260 6b 67 5a bc 79 b5 ce 3c 86 72 10 3e 07 cf 78 3d
       -0.013330321 0.025233017 0.14106187 0.06074431
000270 2c 03 03 3a c3 69 6a 3e c4 b4 e1 3c 6c ba 65 be
       0.0004997726 0.22891907 0.027552016 -0.22434396
000280 88 56 ab be 29 f4 02 3d ce 6e d9 bd 67 e7 12 3c
       -0.33464456 0.03197113 -0.106168374 0.008966303
000290 92 02 65 be 8c 5e 7d bd fc 1c 4e bd 26 ba 34 be
       -0.22364262 -0.061857745 -0.05032061 -0.17649135
0002a0 bc 6a 50 3d 2b 04 a3 3d 6c 83 7b bd 9e d3 1d be
       0.05088304 0.07959779 -0.06140463 -0.15412757
0002b0 7f 5d 1a be 42 05 ed 3d 3f c7 50 be 25 32 58 3e
       -0.15074728 0.115732685 -0.20388506 0.21112879
0002c0 ed 16 30 be 9c f1 c4 bc 21 f9 13 be 6a 89 9f bd
       -0.17196245 -0.02404099 -0.14450504 -0.077898815
0002d0 27 f8 09 be 59 77 38 bd fc d7 ad 3d 5d 91 a5 bc
       -0.13473569 -0.045035694 0.084884614 -0.020210916
0002e0 e0 ee 83 bd 4d fa de bd 81 6d aa bd 6e 18 5d 3c
       -0.06442046 -0.10887585 -0.083216675 0.013494594
0002f0 59 a9 9a 3d 93 95 00 bd ac 64 10 be 96 15 c2 3d
       0.07551832 -0.031392645 -0.14100903 0.094767734
000300 6a cc 00 be 92 92 08 3e dc ff 95 3e fb 57 02 be
       -0.12577978 0.13337162 0.29296768 -0.12728874
000310 4d ac 8c 3d fd b6 6e bd b0 9a 00 3e 94 fc b3 3b
       0.06868801 -0.05827998 0.12559009 0.005492756
000320 a4 36 f8 bd 56 ae 55 be 1b c6 11 be b4 62 64 bc
       -0.12119797 -0.20867285 -0.14235727 -0.013939548
000330 8f c0 94 bd 3f 57 7d be d6 2c 99 3d f8 bc 1e 3d
       -0.0726329 -0.24740313 0.07479255 0.038754433
000340 b1 46 cc bd 9c 0a 97 3d e4 fa 30 be fa 9d bc bd
       -0.09974421 0.073750705 -0.17283207 -0.09209819
000350 e0 6e 3e bd 00 29 ac 3c 83 78 4d bb 19 ff 99 bd
       -0.046492457 0.021015644 -0.0031352348 -0.07519359
000360 df 06 94 bd 9f 32 79 be ed 0a 08 be 6a dc 41 3d
       -0.07227873 -0.24335717 -0.13285418 0.047329344
000370 5f 3b aa bb 6b 6c 0e be 5f c8 62 3c 58 98 83 be
       -0.005195066 -0.13908546 0.0138417175 -0.25702167
000380 18 19 e7 bd c7 be 0f bd dc 36 23 3b 4f 37 45 3d
       -0.11284083 -0.03509405 0.0024904525 0.04814845
000390 a6 57 0e be e0 23 2b bd 45 78 b7 3d e9 c5 87 bd
       -0.13900623 -0.04178226 0.089584865 -0.06629545
0003a0 ea e3 69 bc 20 65 f3 3d 6b 91 ef 3c fe 10 81 3e
       -0.01427553 0.118845224 0.029244145 0.25208277
0003b0 2b b7 c3 3c 65 c9 b0 bd e8 39 86 3d a9 75 ae bd
       0.023891052 -0.08632163 0.065540135 -0.08518536
0003c0 a0 d2 15 3e 1a 9d 4f bd 61 bf da 3c 95 94 75 3e
       0.14631128 -0.050686933 0.026702585 0.23982461
0003d0 ec d6 d8 3d 20 b4 00 3e e0 0c b4 3d 7d 05 e1 bc
       0.10587868 0.12568712 0.08791518 -0.027468437
0003e0 5c 1e 1a 3e c1 44 86 3e 0f 56 b4 bb f6 8b 8c bd
       0.15050644 0.2622433 -0.005503423 -0.06862633
0003f0 6c 3a 12 3e 04 10 00 be 23 f3 a2 3d dd 8e ee 3d
       0.14280099 -0.1250611 0.07956531 0.11648343

fc3.bias f4 [10]
000000 74 91 64 bc 1e 1d e0 bd 89 97 4a 3e 08 57 f5 bd
       -0.013950694 -0.10943054 0.19784369 -0.119794905
000010 f9 15 52 3c 22 42 9a bd 53 47 16 3e 00 c4 01 be
       0.0128226215 -0.07532145 0.14675646 -0.12672424
000020 f6 b6 d2 3d 0a 40 e2 bb
       0.10288803 -0.0069046067
