fashion_mnist_improvedModel.pth (torch, 831793 bytes, 24 tensors)

conv1.weight f4 [16, 1, 3, 3]
00000000: 77e2 1fbd a8a1 9e3e c474 9539 8604 9b3e
00000010: 00f6 183e 6742 bdbe 9306 c2be 0b62 9abe
00000020: 4f37 b73e 0fb2 90be 1f10 13bf 6892 b9bd
00000030: fa9d 9a3e 5ec3 5a3d bfd6 0b3e 45e4 f13c
00000040: 2f29 3dbe fa87 7cbd ead1 a3be 434d 4cbc
00000050: 4eca a93e 6ad7 d3be 72ab 133e 5380 efbd
00000060: 924c ed3d 832a 633e 6608 b0be 4a5a f5bd
00000070: 23db 563d e5df 903d 9167 bc3d 0887 cebe
00000080: a35d b13e 607c bbbd 8cf8 60be b46d 933e
00000090: 43a3 fa3d 19e7 34bd 4cc8 57bd 78bb 083d
000000a0: bad2 a7be d47c fd3d bd88 40be ea32 47bf
000000b0: 4fff 6ebe ce55 e33d 580a e5be 2dbf aa3e
000000c0: e598 853d 344b 6e3e e9e3 8fbe 1290 b0bd
000000d0: 01cb 553e d352 fdbd 33f7 ebbd 2b48 bdbe
000000e0: 68e6 98be 80d1 06bc 02e5 b93e 02bf da3e
000000f0: d4dc 6cbc dc93 263d 9407 4e3e ebb2 5dbd
00000100: 61df 3ebe fa0d 2cbe 67ba b0be aaac 673e
00000110: cd35 94be 0afa e23d c6b5 bd3e 30f1 c73e
00000120: 884a 8fbe 871b 203e f2ad 843e 51d1 8c3e
00000130: 6b78 5bbe 457b 013e e1c8 843e c62a 25be
00000140: e75e 2bbe 82d5 58be 95ec 783e 04ef 8ebe
00000150: ce55 08bf e8ef 6fbe a7d6 9f3e cc08 8c3b
00000160: daf1 82bd 3d10 5e3e ec0a 4ebd 48d3 49be
00000170: 0cd9 dbbe dafa 8b3e 333f c5be 51c2 b9bd
00000180: b6cd 87be deb7 943e cdc3 0f3e 7725 683e
00000190: d734 7fbc 0780 c6be 680e 813e 6302 20be
000001a0: a73a 61be 5987 2b3b f4ad 8dbe d4e9 74be
000001b0: 8f4d 683d 361a 9c3e 620b 9b3e ca8c 16be
000001c0: b68e cfbe 792a 5ebd ff37 1bbe 670f a0bd
000001d0: e269 cebd 7563 65be ca0a ad3e 79df 1f3d
000001e0: 1d5c 78be b540 063e 7078 293c 2a66 d43d
000001f0: afbf 753e 4038 d5be 8022 dabd 3677 7abd
00000200: c707 9dbd 6e0d a7bd 5837 01bf 9a4f 1abf
00000210: ccf3 023e 7be0 89bd 55bc b2bd 9407 3fbd
00000220: 1eba a43b c2ac 1fbc e77d a13d 6d0f 233e
00000230: 33a3 21be 9fbd ec3d d155 a63e 410c e9be
-0.039034333 0.3098271 0.00028506492 0.3027689 0.14937592 -0.36964723 -0.3789564 -0.30152926
0.35784385 -0.28260848 -0.57446474 -0.09061128 0.30198652 0.053408973 0.13656138 0.029527793
-0.18472742 -0.061653115 -0.3199609 -0.0124695925 0.3316216 -0.41375285 0.1442087 -0.11694398
0.1158687 0.22184186 -0.34381407 -0.11980112 0.05245508 0.070739545 0.09199441 -0.40337396
0.34641752 -0.09154582 -0.21969813 0.28794634 0.12238171 -0.044165704 -0.052681252 0.03338191
-0.3277796 0.12377325 -0.18802162 -0.77812064 -0.2333958 0.1110035 -0.44734454 0.3334898
0.06523303 0.23270875 -0.2810357 -0.08621229 0.20878221 -0.12369313 -0.11521759 -0.36969122
-0.29863286 -0.00822866 0.36307532 0.42723852 -0.014456946 0.040668353 0.20120078 -0.054125708
-0.186399 -0.16802207 -0.34517214 0.2262446 -0.28947297 0.110828474 0.37052745 0.390512
-0.2798655 0.15635501 0.2591396 0.27503446 -0.21432655 0.1264468 0.25934508 -0.16129598
-0.16735421 -0.21175197 0.24308999 -0.2791673 -0.5325593 -0.2343136 0.31218454 0.0042735096
-0.06393786 0.21685882 -0.050303385 -0.19709504 -0.4293903 0.27339822 -0.3852478 -0.09070266
-0.26524132 0.2904653 0.14039536 0.22670542 -0.015576563 -0.38769552 0.25206304 -0.1562591
-0.2199503 0.0026173203 -0.27671778 -0.23917323 0.05671459 0.30488747 0.30282122 -0.14702144
-0.40538567 -0.054239724 -0.1515808 -0.07815438 -0.10078789 -0.22401221 0.33797294 0.03903148
-0.24253888 0.13110621 0.010343656 0.10371049 0.23998903 -0.41644478 -0.106511116 -0.061148845
-0.07667499 -0.081568584 -0.5047507 -0.6027771 0.12788314 -0.067322694 -0.08727328 -0.046638086
0.0050270697 -0.0097457785 0.07885342 0.15923853 -0.15784912 0.11559605 0.32487348 -0.4551716

conv1.bias f4 [16]
00000000: 023c 1eb8 0d00 2eb7 bef6 30b7 bb5b 9537
00000010: 008b b3b6 c7c4 ec37 2217 8536 b520 9cb7
00000020: 7e46 0fb8 c083 ab37 df65 bcb6 cfaa 37b7
00000030: cb7a ae36 de28 9437 fdcc f0b6 b06e 41b7
-3.7726022e-05 -1.037122e-05 -1.0547867e-05 1.78049e-05 -5.3507974e-06 2.8225024e-05 3.966402e-06 -1.861188e-05
-3.4159508e-05 2.044614e-05 -5.614696e-06 -1.09474195e-05 5.199899e-06 1.7662005e-05 -7.176421e-06 -1.1529468e-05

bn1.weight f4 [16]
00000000: f9b3 743f 94b5 873f 431c 683f 2e51 853f
00000010: 8c41 a13f b48a 493f ed69 2f3f 95ca 5a3f
00000020: 0410 4d3f d4d5 8c3f 2e74 8e3f 9c08 923f
00000030: e3f1 773f cfca 613f 8893 a73f 20fb 7d3f
0.95587116 1.0602288 0.90668124 1.0415399 1.2598128 0.7872727 0.68521005 0.85465366
0.8010256 1.1002755 1.1129205 1.1408877 0.96853465 0.88200086 1.3091898 0.9921131

bn1.bias f4 [16]
00000000: e3c2 74bd df0c debe d883 80bd fff7 833d
00000010: fa21 e6be 89f3 45bd 4b99 77be 2902 ac3c
00000020: d852 e3be 41a9 96be 5af8 17bf e49f 0fbf
00000030: 8fb5 9abe 9695 9b3d 91d8 09bf 6d19 eebd
-0.05975617 -0.43369195 -0.06275147 0.06443786 -0.44947797 -0.048327956 -0.2417957 0.020997124
-0.44399142 -0.29426005 -0.5936333 -0.5610335 -0.30216643 0.07596891 -0.5384608 -0.11625943

bn1.running_mean f4 [16]
00000000: 5b45 a2bc bcad 833e 23a0 133e 5cba 593c
00000010: 026e 093f 0db8 b0bb 536c d9bd d414 abbc
00000020: e614 bbbd dbfc 5d3e c3fc 8e3e f05d a23e
00000030: 070d fd3d 8c2b 5bbc 43d8 173f 3187 c7bc
-0.019808462 0.25718486 0.14416556 0.01328906 0.53683484 -0.0053930343 -0.10616364 -0.020883955
-0.091348454 0.21678488 0.27927217 0.31712294 0.123560004 -0.013377082 0.59314364 -0.024356456

bn1.running_var f4 [16]
00000000: c217 283d 90a6 713e 699a d63d 7f3d 9d3d
00000010: 6c93 4e3f 5414 633c a582 fb3d 52ff de3d
00000020: 8794 383d e4d9 523e 0207 783e 7ea9 c33e
00000030: 4098 dc3d 18af 493d 6940 623f ba19 893d
0.041038282 0.23598695 0.1047867 0.07677745 0.806937 0.013859827 0.12280778 0.10888542
0.04506352 0.20590931 0.24221423 0.3821525 0.10771227 0.049239248 0.8837953 0.0669436

conv2.weight f4 [32, 16, 3, 3]
00000000: 226f 70be 010b c4be 2ddb 8bbe cdcd 16be
00000010: ebd0 36be 0fe5 85be 6f64 433e 5808 22bd
00000020: 5231 4cbe 0475 ba3d 6dad 443d bddf f43d
00000030: 5b82 1d3e 6897 af3d cbd5 02bd 88a1 27be
00000040: 981d b1bd 373c 0fbe cc89 0ebd bd02 a33d
00000050: ba81 9b3d fca0 813d 9a72 323d 03e8 19be
00000060: ba40 e6bd fb85 8dbe d9a8 2abe 8322 2c3c
00000070: 2af8 c4bc 6382 afbe a89e 3e3d b43b e3bd
00000080: 8ae8 b83d ce51 c93d 07f5 2dbe 1c83 9d3d
00000090: 16d6 713c c1af 843d 2ee8 153d 0841 103b
000000a0: c3c9 6abc 93b9 e4bd 52da 04be 6526 96be
000000b0: 66b3 93be c25d adbd 4e7c 6dbc d901 1dbe
000000c0: 460f 023c f08a b9bc 057c b4be 6e0f 5bbe
000000d0: 2e73 4a3e ce5e 37be 4805 83bd dbd9 66bc
000000e0: 60af 13be d9b4 c6bc 7158 5ebd d041 96bd
000000f0: c6ab 11be 5582 483d 1577 a8bd 27f6 f3bd
00000100: e8d8 a03c cddc 96be ab0b c63d e64e f93d
00000110: 06ef 44bd cdac fcbd e0e3 8d3c e11e 30be
00000120: afe9 debd a03f 4cbe ed37 10be e8c9 60be
00000130: f6e8 1cbe 5b9f a3be 6fef 79be ffc9 3dbd
00000140: dea7 cdbd 036f 0f3e 2998 063e a1cd 15bc
00000150: af30 20bd 1c72 2abd fffe afbd e377 213e
00000160: 2848 afbd 16f9 78be a4e8 2f3e 48b5 433c
00000170: 7b81 143e e857 a13c 0940 e43d 5a9b d33c
00000180: e031 b9bd 0898 903d 6f2e c0be fb81 4fbd
00000190: 412d 9bbd 0f5d 903e 1c67 71bd 7bc6 4abd
000001a0: 01ea 053e 2acb dfbd 836e 65be eada e3bd
000001b0: c418 12be 63f5 e7bd 7ce5 18bd 6f6f 2b3e
000001c0: fef6 233e 412d 22bd fccf 5abd b69c 39be
000001d0: a217 bcbd 2a91 55be 92ab 42be c0a0 e1be
000001e0: bb95 2cbd 08c4 acbd 79b9 c8be ed44 493c
000001f0: 0fc9 08be 0e75 0cbf 5c62 093e 939c 5d3c
00000200: a728 e63c 5604 5f3d 04b9 ba3c 6588 36bd
00000210: 2bde 3ebe 0194 1fbe d814 dbbe 8335 4dbe
00000220: aa6f a9be e662 8bbd 5fb7 12be 2f44 b1be
00000230: 778b cabe a634 b4be 6998 48bd 7d1f 91bd
00000240: 4c3a 2fbb fbda 36bd 4026 c2bd 06d2 44bd
00000250: 4a4a 90bd 029c 97bd 7c41 8cbe aa78 1f3d
00000260: 9032 b5be 9c9f 603e afcf 87bd fcba df3c
00000270: de82 06be bd64 5ebd 0a0c cd3d d9b9 ac3e
00000280: 0877 973d 5c9c d03d cab2 30be a864 5bbe
00000290: dca6 c63e 16d9 55be 6e7d 6c3d faf4 813e
000002a0: cd1a 84be 4fb7 d53d 32c5 c0bd dace eb3d
000002b0: 49da d0bd 25a9 373e 42ee 543d dc06 a73e
000002c0: dce1 033d f797 ab3d ed61 8e3e 4841 c1be
000002d0: 9a90 8f3c e758 9bbd e7be 963c 0714 e33d
000002e0: 901f 2fbe 6ab0 183e cac4 dabd 1d63 90be
000002f0: 22ee 8f3d 6492 ddbd e7ba 64bd effe 813e
00000300: 0013 fabd 8ffe fc3d 6e90 c03d c260 03be
00000310: 4cf1 523d 6513 96bd f9fa cb3d 363a 8d3d
00000320: 459e 1a3d f44a 9fbd ae5f 613c 85bf 9bbd
00000330: ab61 3f3d a8f8 0a3d 3e61 073d 3cc5 a13c
00000340: 1250 fe3d cc5b 883c decd 93be b5cc d83d
00000350: 9c95 a0bd 8f09 aa3d 2e1b b23d 1cce 2c3e
00000360: 5aa3 63be bdd7 cabe 734c b3be 641c 803c
00000370: 783a 0dbe 7fe9 ffbd 7ee5 efbb 6ad1 94be
00000380: dba1 babe a69a 8e3b 17f6 0bbe 2264 74bd
00000390: db77 aebd 0f1a a63d 65a7 503d 1550 8b3d
000003a0: afaf ae3d 3c0e 71be cbf4 4dbd 4073 a53d
000003b0: 661b 6a3d 90eb a6bd 7d56 0c3e b1ca 92be
000003c0: 3234 f63d be34 95be 87a2 923e c535 4f3e
000003d0: 1767 ee3d 6d08 98bd 956f 393d c37f 813c
000003e0: 5bcc b13e 94f6 373e 88c7 43be 1286 a83e
000003f0: 9f61 723e 57c8 a7bd 16ae 163d 7c02 293e
-0.23479894 -0.38289645 -0.27315655 -0.14726944 -0.17853133 -0.2615132 0.19081281 -0.03955874
-0.19940689 0.0910435 0.048016954 0.11956737 0.15381758 0.085738 -0.03194217 -0.16370213
-0.08648223 -0.13987814 -0.034799382 0.07959507 0.07593103 0.063295335 0.043566324 -0.15029912
-0.11242814 -0.2764128 -0.16665973 0.010506275 -0.024044115 -0.34279165 0.046538025 -0.11095372
0.09028728 0.09830056 -0.16988002 0.07691023 0.014760515 0.06478835 0.036598377 0.0022011418
-0.01433033 -0.11168208 -0.12973908 -0.29326168 -0.28847808 -0.084651485 -0.014494969 -0.15332736
0.007938212 -0.022649258 -0.3525087 -0.21392605 0.197705 -0.17907259 -0.06397492 -0.014090027
-0.14422369 -0.024256157 -0.054283563 -0.073367715 -0.14225683 0.04895242 -0.08225838 -0.11912184
0.019634679 -0.29465333 0.09670194 0.12173252 -0.048079513 -0.12337647 0.017320573 -0.1719928
-0.10884415 -0.19946146 -0.14083834 -0.21952021 -0.15323243 -0.31957516 -0.24407743 -0.046335217
-0.10041784 0.14007191 0.13143982 -0.009143264 -0.03910893 -0.04161273 -0.085935585 0.1576839
-0.085586846 -0.24313769 0.17178589 0.011945076 0.14502518 0.019695237 0.11145026 0.025830913
-0.09042716 0.07060248 -0.37535426 -0.05066107 -0.07576991 0.28195998 -0.058936223 -0.049505692
0.13077547 -0.10927422 -0.22405438 -0.11125739 -0.1426726 -0.11326101 -0.03732823 0.16741727
0.16012189 -0.03959394 -0.053421006 -0.18126187 -0.09184195 -0.20856157 -0.19010761 -0.44067955
-0.04213498 -0.084358275 -0.39204004 0.0122845 -0.13357948 -0.5486611 0.13416427 0.0135261
0.028095556 0.054447494 0.0227933 -0.04456367 -0.18639438 -0.15583803 -0.4278934 -0.20039944
-0.33093005 -0.06805973 -0.14327763 -0.34622332 -0.39559528 -0.35196418 -0.048973475 -0.07086084
-0.0026737629 -0.04464243 -0.09479952 -0.048051856 -0.070454195 -0.07402803 -0.2739371 0.038933434
-0.3539014 0.21935886 -0.066314094 0.02731084 -0.1313586 -0.05429529 0.10012062 0.3373554
0.0739575 0.10186073 -0.17255703 -0.21425116 0.3879918 -0.20883593 0.057736807 0.25382215
-0.25801697 0.10435354 -0.09412612 0.11514063 -0.101978846 0.17935617 0.051985033 0.3262242
0.03219782 0.08378594 0.27809086 -0.37745118 0.017525006 -0.07585316 0.018401576 0.11087804
-0.17101884 0.14911047 -0.10682066 -0.28200617 0.07027842 -0.108189374 -0.055842306 0.2538981
-0.12210655 0.12353241 0.09402548 -0.12829879 0.05149965 -0.07327918 0.099599786 0.068958685
0.037748594 -0.07777968 0.013755722 -0.07604889 0.046724003 0.033928543 0.03305172 0.019747369
0.12417616 0.016645335 -0.28868002 0.1058592 -0.07841036 0.083026044 0.0869659 0.168755
-0.22230282 -0.3961772 -0.35019264 0.015638538 -0.13791835 -0.12495708 -0.007321059 -0.2906602
-0.3645161 0.0043519316 -0.13668095 -0.059665807 -0.08518954 0.08110439 0.05094089 0.06802384
0.08529603 -0.23540586 -0.05028228 0.08078623 0.057155035 -0.08150399 0.13704868 -0.28670266
0.12021674 -0.29141802 0.28639624 0.20235355 0.116407566 -0.07423482 0.04527243 0.015807992
0.34726223 0.17965156 -0.19119084 0.32914788 0.23670052 -0.08192509 0.036787115 0.16504854

conv2.bias f4 [32]
00000000: 433d 85b5 e71a 53b5 04e2 8bb5 bdaa d335
00000010: dbe2 0836 b79d 0eb6 c486 1836 95e9 5636
00000020: f3ae b9b5 2092 0736 6663 9936 819f ee35
00000030: 657c 7ab6 94bd 7a36 c333 30b4 15d7 8fb4
00000040: f671 2336 9921 2e36 e163 7735 1409 07b6
00000050: 0abc c135 9725 6eb6 33aa 12b4 c526 a9b4
00000060: c153 b335 e7fc 27b6 e6fe 4935 1f67 c635
00000070: 8ff6 4436 b975 8235 72c3 9136 34e5 b3b5
-9.927102e-07 -7.8642773e-07 -1.0422086e-06 1.5770416e-06 2.0397626e-06 -2.125145e-06 2.272821e-06 3.2024448e-06
-1.3834491e-06 2.0201624e-06 4.571327e-06 1.7778804e-06 -3.732531e-06 3.7363252e-06 -1.6410108e-07 -2.6792318e-07
2.4355227e-06 2.5947577e-06 9.2160013e-07 -2.0121852e-06 1.4434347e-06 -3.5486644e-06 -1.3659228e-07 -3.1506912e-07
1.3360915e-06 -2.5032148e-06 7.524926e-07 1.4782162e-06 2.9349792e-06 9.720017e-07 4.3440896e-06 -1.3403246e-06

bn2.weight f4 [32]
00000000: fed9 993f a3be 793f 5a9c 653f e1b3 713f
00000010: 089d 863f efac 473f f9f3 783f f24f 873f
00000020: d7ac 593f 0195 983f 90fd 5a3f 440b 7d3f
00000030: bdb3 673f 6044 8d3f d619 643f 647a 693f
00000040: e1e5 683f 6fea 4c3f a744 8f3f 736f 563f
00000050: 0e28 603f c615 6f3f d4e0 c43f f2ab 843f
00000060: 6e8c 893f c2b8 6e3f a5ba 623f f23c 383f
00000070: c9b1 553f a865 673f 35d4 8c3f 87b7 7b3f
1.2019651 0.97556514 0.896917 0.944151 1.0516672 0.7799825 0.9724727 1.0571272
0.8502936 1.1920472 0.85543156 0.98845315 0.90508634 1.1036491 0.8910192 0.9120238
0.9097577 0.8004522 1.1192826 0.8376381 0.8756112 0.933926 1.5381112 1.0364974
1.0745981 0.9325067 0.88566047 0.71967995 0.83474404 0.9038949 1.100226 0.98326916

bn2.bias f4 [32]
00000000: 9048 f1be 1b79 c3be c429 d3be ffb9 8abe
00000010: de7c d1be ee2d 1ebd 4ab4 b7be 2a42 17bf
00000020: fbae d5be ccae 92be 5e66 00be 0d38 b3be
00000030: 5869 33bd 4675 babe 03b7 c6be 5139 cbbe
00000040: 12a4 cbbe 28d8 0ebe 5d30 a4be cfce 55be
00000050: 371f c8be a58b 72be 148f c9be f0a5 c3bd
00000060: e9a3 b2be b04b e9be 50bf 10be ed01 64be
00000070: 351a c6be 647a a1be 143f 95be 2109 93be
-0.47125673 -0.38178334 -0.41242802 -0.2709503 -0.4091558 -0.03861802 -0.35879737 -0.59085333
-0.41735062 -0.28648984 -0.1253905 -0.350037 -0.043801636 -0.36417598 -0.38811502 -0.39692166
-0.39773613 -0.13949645 -0.32068148 -0.20879672 -0.39086315 -0.23686083 -0.39366972 -0.095531344
-0.3489068 -0.45565557 -0.1413548 -0.2226636 -0.3869187 -0.3153869 -0.29149687 -0.28717902

bn2.running_mean f4 [32]
00000000: 0df7 a0c0 f1f1 a6be 6705 9fbf 62e5 35bf
00000010: 1b32 e13f 28ba 64bf 15c3 77bf 3ae5 07c0
00000020: 65fb dfbf c2bc fdbf 21cb 2dbf b246 b6bf
00000030: 7350 52bf dd87 12c0 1a55 09bf 8724 cc3f
00000040: 02e1 2ebf 6391 1abf dc09 2bc0 d77e a5bf
00000050: ad07 d4bf a2ff 9bbf fb04 30c0 8a81 15c0
00000060: 893a 0ec0 c537 4ebf 7c7d 5cbf d23a 8a3f
00000070: ba67 7abd c869 aabf 5fd4 08c0 52ae 92bf
-5.0301576 -0.32606462 -1.2423524 -0.71053135 1.7593416 -0.8934655 -0.96782047 -2.1233659
-1.7498595 -1.9823229 -0.67888075 -1.4240324 -0.82154006 -2.2895424 -0.5364548 1.5948647
-0.68312085 -0.6037809 -2.6724768 -1.2929333 -1.6564842 -1.2187388 -2.750304 -2.3360314
-2.2223227 -0.8055385 -0.86128974 1.07992 -0.061134078 -1.3313532 -2.137962 -1.1459448

bn2.running_var f4 [32]
00000000: 7b6f 2f41 75d5 1a40 2ea4 1b40 7547 5840
00000010: a493 8140 e6b3 0140 0260 2740 a97c 1040
00000020: fe20 0240 e9cb 4d40 a4ac ae3f 33bd 0940
00000030: f66c 0340 3cab 8c40 c11c 6440 eed8 8e40
00000040: 59f5 0740 53e0 f43f ef77 9e40 12af dc3f
00000050: a615 1d40 b874 1940 7781 ff40 2e9d 6f40
00000060: 1c32 9b40 7097 e63f a9fa 3140 c3fc 6540
00000070: 5a6f 2640 7c80 2240 5a62 5940 e0eb 0940
10.964717 2.4192784 2.4318957 3.3793614 4.0492725 2.0266051 2.6152349 2.2576087
2.0332637 3.2155707 1.3646436 2.1521728 2.0535254 4.3959026 3.564255 4.4639807
2.1243498 1.9130958 4.9521403 1.7240927 2.4544463 2.397749 7.984554 3.7439685
4.849867 1.8014965 2.780924 3.5935524 2.6005464 2.539092 3.396628 2.1550217

conv3.weight f4 [64, 32, 3, 3]
00000000: d6c1 163d c207 3ebe 50c8 62be 4f3d a73e
00000010: b3b6 873e 036b aebc c80b d2bc 38b7 c33d
00000020: 4444 35be 9a97 05be 39e4 bc3d 0754 aa3d
00000030: f7c0 333e 8866 f43d 3b44 8abd 0565 73be
00000040: b9dd a23d 55cf 73be 048d f1bd cf0f bfbd
00000050: de72 1d3e 55f3 813c eda1 1bbe 247b adbd
00000060: c49a 473e 8ed8 a63d c30b 9a3e a4b4 57be
00000070: 439c 453e 9fed dcbd 375d 15bd 4a88 3d3e
00000080: 3f38 c8bd f00b 25be 1338 60bc 5c62 ee3c
00000090: f440 843e cb10 073b ff4e 9b3d d6fe 413e
000000a0: c481 f33b 13f7 e63c c806 5dbe ffae 2c3d
000000b0: fdb8 adbe 6347 df3d b2e7 0c3d 4288 54be
000000c0: 2fcf 783e 854b c0bd 3bc9 a33c be80 523d
000000d0: 25b3 89be 7d7a 9fbc 5eef 55be ab10 4c3d
000000e0: 21d8 efbd 7def 0a3e ab52 633e 6bfd 673d
000000f0: d470 883d 2212 8c3d e5c1 cb3c e36c 323d
00000100: 21c4 93bd d29a 8b3d 0757 25bd b4ef 21be
00000110: ce1b 85bb e99b babd 72cd a83b e99c 1dbe
00000120: 1df3 8e3d 6056 bebc 3ec4 a43e f557 a33c
00000130: 23cd 76bd cdfe 96be 275e 543e 8343 0dbc
00000140: 61c7 593e 6282 39be ba2d ecbd b2db 0d3e
00000150: c603 113d d36d 29be 078c a3be 9384 49bd
00000160: 8949 c93d 1bc6 19be 192a ccbd 4d1a 753d
00000170: 04d7 b2bd c90d a7bd 411b 23be c07e 4cbe
00000180: 7710 dbbd 505a 0fbe 085b 1c3e 3169 f83d
00000190: 9b8a 2f3e 7e26 06bd bb4d 6dbd e426 063d
000001a0: b47c 903d 31b4 52be 341e 27be 6030 6abe
000001b0: 11e2 223e 0670 8ebe e239 213e 9700 d1bc
000001c0: 3a69 e9bd 21fb 4abe bb83 edbc 1a1c 033e
000001d0: ba9e 2abe fc99 7ebd b71b 0bbe 27d0 86bd
000001e0: 9260 533c 79eb 023e df8f 073e 43e6 98bc
000001f0: 4c74 183d a3f2 453d 197f e43d a01f 3e3d
00000200: ef9d a53d ac4d 8f3e 65b7 25be 75f6 823d
00000210: c837 67bc 48bf afbc 765e 98bd bbb3 643e
00000220: daa9 8cbd a8fb 6f3e 6381 b13e 01f2 8d3d
00000230: 2857 c5bd 4fc0 5c3e b107 abbe ce18 73be
00000240: bab5 033e cf52 d7bc aa88 82bd e9ee 8cbd
00000250: 3667 e8bc 8721 a4bd 8871 91be 06a1 b2be
00000260: f376 bcbd 9620 fa3b 95f2 31bc 14ef 143d
00000270: 63cc 60be d97d 8dbd 523f 05be 322f d03d
00000280: 7946 a93d bd18 09be 05dd b8bd d77c 283e
00000290: e0bd 043e 6241 00bc 90b4 84be 29bc c33d
000002a0: 33c9 543e adf5 9a3e a64a 1d3e acb1 78bd
000002b0: f6c8 993e 51b7 0fbe dd32 92bd 9039 713c
000002c0: 81d0 453d 5325 ac3d d0f1 a23d c141 59be
000002d0: 99d4 243e b642 cabd 0e5e b73d 70fb 993d
000002e0: 2a6d 88be ee63 35be a317 a73d bd0e da3e
000002f0: 2f8a 223e 39c0 d9bd 4e7c 3abe 1d47 253e
00000300: 8d49 ec3d 151f 3a3e c1f2 f53d 9977 3d3e
00000310: 2f3b b1bd 885f 4e3d 940a ae3c 940d 0dbe
00000320: f58e 2a3e 2c20 b63d 9f63 a73d 99ba 61bd
00000330: 50b6 abbd 1c99 bcbc 9677 a6be 31f2 01be
00000340: b4da 84bd b59c 863c 7c98 133e 7221 11be
00000350: 377e 93be 10f8 293e 0b31 c5bd 2b72 883e
00000360: bde7 55bd 9533 58bb d7cd 68be 630f 7e3c
00000370: 9be1 5fbe c735 143e 1be5 babe 84cd c93e
00000380: a52c 2a3d c75f 6cbe c94a 9cbd ec03 563d
00000390: 6a97 803a 4df5 803e b2a0 ce3d 90ab 18bb
000003a0: 9c8e f2bd a2c0 97be 0780 013d 5fed 373d
000003b0: 7711 293e 91a8 f73d a669 753e ab02 a0be
000003c0: 7579 debc 820e 79be 4f80 a9bc 7f3f 45be
000003d0: c916 14be 3a5f eb3d 95e4 8bbd ec1f 793d
000003e0: 8cf8 cb3c 860b 703d 3cb6 7cbe cc8c 51ba
000003f0: ac85 55bd af2a 653d 5859 33be 12f0 3ebe
0.03680595 -0.18557647 -0.22146726 0.32663962 0.26506576 -0.021291262 -0.025640383 0.095564306
-0.17701823 -0.13046113 0.092232175 0.08316808 0.17554079 0.11933619 -0.06751295 -0.23769005
0.079524465 -0.2380956 -0.11794475 -0.09329187 0.1537585 0.0158631 -0.15198489 -0.08470753
0.19492632 0.08146773 0.30087098 -0.21065003 0.1929789 -0.1078751 -0.03646585 0.18509021
-0.09776353 -0.16117835 -0.013685244 0.029099636 0.25830805 0.0020609375 0.07583427 0.18944868
0.0074312408 0.028193986 -0.21584618 0.042159077 -0.33930197 0.10902288 0.03440065 -0.20755103
0.24297784 -0.09389404 0.019993415 0.05139231 -0.2689449 -0.019467587 -0.20892093 0.049820583
-0.11711145 0.1356792 0.22199504 0.056638163 0.06662145 0.06839396 0.02487273 0.043560874
-0.07215143 0.06816639 -0.0403662 -0.15814096 -0.0040621525 -0.09111769 0.005151444 -0.15391888
0.06979964 -0.023234546 0.3218097 0.019939402 -0.060254227 -0.29491273 0.20739041 -0.008622053
0.21267463 -0.18116143 -0.11532159 0.13853338 0.03540399 -0.16545801 -0.3194277 -0.0491987
0.09828479 -0.15016977 -0.09968967 0.059839536 -0.08732417 -0.08156926 -0.15928365 -0.19970226
-0.106965 -0.13999295 0.152691 0.12129439 0.17142718 -0.032751553 -0.057935458 0.032751933
0.07055035 -0.2057655 -0.16320115 -0.22870016 0.1590655 -0.27819842 0.15744737 -0.025512977
-0.113970235 -0.1982236 -0.028993478 0.12803689 -0.16662112 -0.06215857 -0.13584791 -0.06582671
0.012901442 0.12785138 0.13238476 -0.018664485 0.037220284 0.0483271 0.111570545 0.04641688
0.08086764 0.27988946 -0.1618324 0.06394664 -0.01411242 -0.021453515 -0.07439892 0.22334187
-0.06868334 0.23435843 0.34669027 0.06930924 -0.09635764 0.21557735 -0.33404306 -0.23739931
0.12862292 -0.026284603 -0.06373723 -0.06881506 -0.028369527 -0.08014207 -0.2840693 -0.34888476
-0.09202375 0.007633279 -0.010861059 0.036360815 -0.21952967 -0.06908769 -0.13012436 0.10165252
0.08265395 -0.13388343 -0.09026531 0.16453873 0.12963057 -0.0078280885 -0.25919008 0.09557373
0.20779876 0.3026556 0.15360507 -0.060716316 0.30036134 -0.14034773 -0.07138608 0.014723197
0.048294548 0.084055565 0.07956278 -0.2121649 0.16096725 -0.09876005 0.089534864 0.07518661
-0.26645786 -0.17713901 0.08158805 0.4258937 0.15873025 -0.10632367 -0.18211481 0.16140409
0.11537466 0.1817592 0.12009192 0.18502654 -0.086538665 0.050384074 0.021245278 -0.13774711
0.16656096 0.08892855 0.08173298 -0.055109594 -0.08384383 -0.023022227 -0.32513112 -0.12690045
-0.06487027 0.016432146 0.14413637 -0.14172915 -0.28807232 0.16598535 -0.09628495 0.26649603
-0.052222956 -0.003298973 -0.22734772 0.015506598 -0.21863405 0.1447364 -0.3650292 0.39414608
0.041546483 -0.23083411 -0.07631452 0.052249834 0.000981075 0.2518715 0.10089244 -0.0023295619
-0.11843607 -0.29639155 0.031616237 0.04490411 0.16510569 0.12092698 0.23966083 -0.31252035
-0.027157525 -0.2432194 -0.020691065 -0.19262503 -0.14461817 0.114927724 -0.06830708 0.06082146
0.02489879 0.05860474 -0.24678892 -0.00079936977 -0.052129433 0.05594891 -0.1751455 -0.18646267

conv3.bias f4 [64]
00000000: 94a0 5735 93ff de35 11b4 b834 2dd2 1635
00000010: ec3d 3e35 3906 4634 2018 3335 b40f d4b4
00000020: 1497 03b4 6b2c 4035 a534 1935 0143 a435
00000030: 5bfe cdb5 e651 0e35 5009 4234 7cb1 4335
00000040: 5764 c135 721b 3735 a9d4 5035 81d8 8cb5
00000050: 7954 a4b4 e3a9 bbb5 823f 4433 c5ba 9eb5
00000060: cf93 a9b4 b85a a3b3 347b 09b5 f226 67b4
00000070: 4b59 a9b4 f76e 0a35 961e 5335 bcf5 bd33
00000080: 4852 a035 7065 bdb4 848d a734 acfd 6735
00000090: 2f1c 9634 6026 34b5 d8f2 c734 d704 e9b4
000000a0: b7a2 6d35 12b8 7a33 93f1 2d35 090f 52b5
000000b0: ffd2 8135 6bb0 cb32 0ef7 31b5 2fff c634
000000c0: e667 4635 2644 6db5 bf7d e334 3f20 b8b5
000000d0: 2a90 3db5 5dfb 4235 fa09 04b4 0be9 9ab4
000000e0: ac02 bd35 58e0 5933 d736 0835 501f 3eb5
000000f0: 2c20 bb35 42f8 3ab5 1d1f 2c35 b4fc 23b5
8.0327413e-07 1.6614671e-06 3.4403686e-07 5.61852e-07 7.0870624e-07 1.8442451e-07 6.67178e-07 -3.9499503e-07
-1.2255288e-07 7.159021e-07 5.707355e-07 1.2238453e-06 -1.5347717e-06 5.30183e-07 1.8071046e-07 7.2901435e-07
1.4408823e-06 6.821275e-07 7.77955e-07 -1.0493824e-06 -3.0608842e-07 -1.3982029e-06 4.5692566e-08 -1.1826274e-06
-3.1586248e-07 -7.6067806e-08 -5.121576e-07 -2.152772e-07 -3.1543672e-07 5.157048e-07 7.8648134e-07 8.845697e-08
1.1944876e-06 -3.52778e-07 3.120914e-07 8.6423347e-07 2.7960184e-07 -6.711107e-07 3.724333e-07 -4.3403153e-07
8.852616e-07 5.8375072e-08 6.479906e-07 -7.8252975e-07 9.672657e-07 2.3712536e-08 -6.629715e-07 3.7066044e-07
7.391194e-07 -8.838855e-07 4.2373537e-07 -1.3718453e-06 -7.0617773e-07 7.2636414e-07 -1.2297087e-07 -2.8854296e-07
1.4082375e-06 5.072829e-08 5.074375e-07 -7.082608e-07 1.3941949e-06 -6.965166e-07 6.412027e-07 -6.1089963e-07

bn3.weight f4 [64]
00000000: cdf7 643f c4b9 7a3f 4835 633f f72f 543f
00000010: ae40 533f b4ad 383f 824f 313f f9a3 5b3f
00000020: e019 493f d05b 803f 59fe 613f ebec 643f
00000030: deb6 533f 8554 603f 257b 5b3f f2df 553f
00000040: 7803 843f 8e13 613f 78ad 513f 2633 633f
00000050: 8dac 683f 1f4b 603f 64e2 5b3f 5317 563f
00000060: 0547 513f 77d7 4a3f 60b2 723f 99a2 513f
00000070: 722e 613f 1227 573f 1b09 833f c770 573f
00000080: 8f2d 6b3f 5605 653f 9bd6 5e3f 96dd 4d3f
00000090: dc10 7e3f d066 7e3f af04 5c3f 0412 643f
000000a0: 6d45 793f 45cf 3c3f ca7a 6c3f b050 763f
000000b0: 507c 463f 3c33 673f dd3a 563f 31aa 533f
000000c0: cc63 4f3f f323 7e3f c2ef 613f a735 823f
000000d0: ff0f 5d3f ff9a 3e3f 9924 523f f6ef 533f
000000e0: 0e36 743f 0501 5d3f acb8 603f 82e7 643f
000000f0: 8609 563f 8758 4c3f e2a6 493f d504 7f3f
0.89440614 0.97939706 0.88753176 0.8288569 0.8252057 0.7214005 0.69261944 0.8579708
0.7855511 1.0028019 0.8827873 0.8942401 0.8270091 0.87628967 0.8573478 0.8354484
1.0313559 0.87920463 0.8190532 0.8874992 0.9088829 0.87614626 0.8589232 0.8362934
0.8174899 0.79235023 0.9480343 0.8188873 0.87961495 0.8404399 1.0237154 0.8415646
0.9186639 0.89461267 0.8704621 0.8041624 0.99244475 0.9937563 0.85944647 0.8908999
0.9737156 0.7375377 0.9237486 0.9621687 0.77533436 0.9031255 0.8368357 0.82681566
0.8101165 0.99273604 0.88256466 1.0172623 0.86352533 0.74455255 0.82087094 0.82788026
0.9539498 0.8632968 0.87781787 0.8941575 0.8360828 0.7982258 0.7877027 0.9961675

bn3.bias f4 [64]
00000000: caf2 15bf c2de c8be 6284 ffbe 4791 f4be
00000010: b77f bfbe 2437 fabe db2c 2ebf 1694 eebe
00000020: a617 fcbe cc43 fdbe d28c f7be a111 f6be
00000030: 5655 c9be ed1f e5be 21f2 23bf 2d62 ebbe
00000040: 9b1d 01bf be72 f3be 38e8 d3be 3874 ebbe
00000050: 80d1 08bf b7d8 0dbf 7dd6 c5be 5944 ffbe
00000060: c662 0abf 04b5 c8be 7be1 09bf 8800 07bf
00000070: c9ed 9dbe 8a60 00bf 430e e1be 2cd2 00bf
00000080: 060f c5be 58ae 02bf ef88 d2be 2832 f8be
00000090: 2fd4 fbbe f7c2 21bf 7a55 d0be 3e1c 03bf
000000a0: e68c fbbe 730f f4be a5f0 e3be 71f9 06bf
000000b0: 966a fcbe b3a9 08bf 6838 cabe 8ad4 f5be
000000c0: 6c45 08bf 1ef6 c9be 152c ecbe 80fd f5be
000000d0: 56a9 d5be 5a0a 1cbf 2b2b f7be 4d42 f4be
000000e0: 3762 f6be baaa eabe 01ff fbbe a726 c1be
000000f0: 95af 02bf 1dce 2cbf 24bf d8be dc29 cabe
-0.5857359 -0.3923245 -0.49905688 -0.47767088 -0.37402126 -0.48870194 -0.68037194 -0.46597356
-0.49236792 -0.49465787 -0.48349625 -0.48060325 -0.3932292 -0.4475092 -0.64041334 -0.4597334
-0.504358 -0.4754848 -0.41388106 -0.45987105 -0.5344467 -0.55408806 -0.38640204 -0.49856833
-0.54056966 -0.39200604 -0.5385968 -0.52735186 -0.30845478 -0.50147307 -0.43956193 -0.50320697
-0.38488024 -0.5104728 -0.41120097 -0.48475766 -0.4918532 -0.6318812 -0.40690213 -0.5121497
-0.49130934 -0.47668037 -0.44519535 -0.5272437 -0.4930007 -0.5338394 -0.3949616 -0.48013717
-0.5323093 -0.39445585 -0.46127382 -0.48044968 -0.41730756 -0.60953295 -0.48275122 -0.47706833
-0.48121807 -0.4583338 -0.4921799 -0.37724802 -0.51049167 -0.67502004 -0.4233333 -0.3948506

bn3.running_mean f4 [64]
00000000: a5da dbbf 8bf7 11c0 3f32 b4bf 7af9 b5bf
00000010: 051b a0bf d14b 89bf 22f4 04be 0ee7 b2bf
00000020: dbbb 723e 7f53 c7be 99ec e6bf 5319 6cbf
00000030: 5287 04c0 154b 9ebe 8b35 cbbf 6aad a0bf
00000040: 0c6a 8ebf ad68 c6bf ccea 40c0 a68a f9bf
00000050: bb7f 7bbe cc7c 63bf 92cd 5f3e 76e0 3a3d
00000060: 4ee7 babf 6fad 83be 479a 2ec0 1926 93bf
00000070: 72de 65c0 ff2f 8c3e 6494 1bc0 8983 f0bf
00000080: 5cc9 f1bf 9a7e 9fbf 7566 50bf ba0f 76bf
00000090: 549b 93bf 6e70 7fbf e7e9 04c0 f150 8fbf
000000a0: 3cb6 8bbf fe23 9dbf b4d5 00c0 5f6e 9fbf
000000b0: 852e 5bbf e480 f5bf 1ff2 89bf 0355 913f
000000c0: c736 07be c89b 2cc0 b7be 03bf ddc7 b3bf
000000d0: 4459 cfbf 7e1b 69bf 01e7 62bf 15f8 bd3e
000000e0: c806 a8be de77 eebf 699b e7be ea4b b5bf
000000f0: d926 88bf ee53 2a3e f86b 86bf a9f6 34bf
-1.71761 -2.2807338 -1.4077834 -1.4216759 -1.2508246 -1.0726262 -0.12983754 -1.3976762
0.23704474 -0.3893089 -1.8040954 -0.9222614 -2.0707593 -0.30916658 -1.5875715 -1.2552922
-1.1126113 -1.5500695 -3.0143309 -1.9495437 -0.24560444 -0.888623 0.21855763 0.04562422
-1.4601839 -0.25718257 -2.7281663 -1.1496001 -3.591702 0.27380368 -2.430932 -1.8790141
-1.8889575 -1.2460511 -0.8140634 -0.96117747 -1.1531777 -0.9978093 -2.0767763 -1.1196576
-1.0914989 -1.2276609 -2.0130434 -1.2455558 -0.8561786 -1.9179959 -1.0777014 1.1354069
-0.1320449 -2.6970081 -0.5146288 -1.4045368 -1.6199117 -0.91057575 -0.88633734 0.37103334
-0.32817674 -1.863033 -0.45235756 -1.4163792 -1.0636855 0.16633579 -1.05017 -0.70688874

bn3.running_var f4 [64]
00000000: 3f09 6840 91f0 8e40 30f6 a640 f2e1 5640
00000010: 3bf6 6e40 aaf8 3440 6b19 0740 81db 5840
00000020: 448a 7040 53b6 8a40 65e0 7840 194c 6140
00000030: 45ca 3040 8083 8840 d192 8440 6f6b 6540
00000040: a47b 8440 1735 7c40 ff12 4a40 5aa4 5540
00000050: 08d9 8240 5400 4640 c033 ae40 1940 3640
00000060: 74ab 7340 8066 3640 b91d 5440 7aad 5e40
00000070: d6c1 8c40 0c93 3a40 61c5 a840 536b 5440
00000080: 721b 9440 7f03 7240 ce83 8540 3260 3240
00000090: d046 9040 7234 2640 7f1b 6d40 1132 6440
000000a0: c81e 5f40 142d 6040 8131 8340 1af2 3a40
000000b0: 6c9c 6440 6327 3a40 c050 6a40 31f0 8240
000000c0: 6e00 5740 d805 7140 9aee 7840 ac59 9540
000000d0: b37e 6940 ea60 3b40 03a6 3f40 2123 3c40
000000e0: fb7b 5f40 84d9 6d40 5715 4940 0cab a740
000000f0: e300 4e40 f5a2 0840 e334 4d40 18bb 8840
3.6255643 4.466866 5.217552 3.3575406 3.7337787 2.8276772 2.1109264 3.3883975
3.758439 4.3347564 3.888696 3.5202696 2.7623456 4.2660522 4.142922 3.5846822
4.140093 3.9407403 3.1574094 3.3381562 4.088993 3.09377 5.443817 2.8476622
3.8073397 2.850006 3.3143141 3.4793382 4.3986616 2.915225 5.274094 3.3190506
4.6283503 3.7814634 4.1723394 2.7871213 4.508644 2.596951 3.7048032 3.5655558
3.4862537 3.5027514 4.099793 2.9210267 3.5720472 2.908654 3.6611786 4.0918202
3.3594012 3.7659817 3.889563 4.6671963 3.648358 2.9277902 2.9945076 2.939644
3.4919422 3.716401 3.1419275 5.2396297 3.2188041 2.134946 3.206353 4.2728386

fc1.weight f4 [256, 576]
00000000: 7046 b23c 8d37 d439 f015 803c 220e 9dbc
00000010: 6bb9 b83c 1ef2 f33b 6006 8b3b 9793 3bbc
00000020: 6f75 8cbc 52b0 6dbc 81d7 a83b bd5b 6fbb
00000030: 42e3 8b3c 3ada fa3c 7e00 ea3b 5e68 e03b
00000040: 4b87 94bb 0042 8abc 1f0a e0ba e993 cbbb
00000050: 298b 35bc 4dfd 373c 0c30 28ba e387 e03c
00000060: 7584 1d3b 9004 963c 106e 9d3c 7d3d d93c
00000070: 7305 e23c f543 a839 086d c5bc 4a2f 4c3c
00000080: 6e1c b73c 40e9 91bd 21f2 493c a4ed 653c
00000090: 552c d43c 75ee 09bd 1843 ba3c bc98 f23b
000000a0: 8663 473d 3f85 d9bb 6025 2f3c 800a a1bc
000000b0: bc87 073c aa63 d73c f5fe 8d3c 7f9e 5c3c
000000c0: b1ad 2b3d b0c1 3cbc 0199 5b3b b916 513d
000000d0: 8e0c 8abb c5bb a1bb 4365 da3c 712c b73c
000000e0: beed 8d3c df28 393c 3faf 083d 2b4c ac3c
000000f0: b3c6 5b3d e390 9abc 915d bebb de8c c63c
00000100: 7956 ebbc 1dd2 a1bb edd6 9f3b 9e65 5b3c
00000110: 8f4a 8abd f70b 3fbd 08a1 b03c 35a6 d0bc
00000120: f670 bf3c a50f ef3c 2e87 d43c 0217 f2bc
00000130: 7408 613c 1229 223c 1e91 06bb c6c8 f83b
00000140: 4ccb 963c c4ef ac3b 45e7 673c b9c4 eb3c
00000150: c9a6 61bc 6720 bb3b d41b 103c 4c91 a1bc
00000160: 0a4e b93b 05d4 b13c e003 36bd 8322 cd3c
00000170: 6825 ab3c 5cbd d13b 8296 fb3c f43c a33b
00000180: 245c 323a c87d 6e3c d69d b8bc 6d4b 3bbc
00000190: 4e32 e0bb 2ca5 f5bc 7755 7dbb 4917 6d3d
000001a0: fcae 983b baf0 6b3c b32c b13c 8dfa 3f3c
000001b0: 9cb2 603c 07b5 b03c 7897 3c3d 6443 00bc
000001c0: 25a7 0b3c d155 5a3c 3fcc 9bbb 9ec9 cabc
000001d0: 52cb a5bc 8766 f33c e259 f5bc dfa1 243d
000001e0: 2ac5 6dbc 49d9 dfbc 52ae b7bc 8b93 233d
000001f0: 89e4 4cbc 75c3 47bc d9f3 383d 9555 33bb
00000200: a2e0 d93c 7012 d93c 1222 a03b b925 993c
00000210: b482 873c e3ac 463b 6bb4 15bc cc25 dd3b
00000220: c178 c339 f67c 3f3d e607 93bb 3fc9 ebbb
00000230: 1f34 c83c a341 0dbd d150 5fbc 92de de3c
00000240: 3719 7d3c b5ec 493b 6947 49bb e6cf c6bc
00000250: fba7 13bd 44a0 003d b734 59bc c125 8cbc
00000260: 07b7 bf3c bd9f 3f3c a9cc 80bc e83a a4ba
00000270: 0572 6a3c a376 63bc ed3d 663b c139 28bc
00000280: d1ca bfbc 1c04 333c c87a 11bd cea4 80bc
00000290: d6a5 883c 58e7 2f3d e7b7 dcbb 78a0 f53c
000002a0: fb62 473d 5a87 713c a197 9e3c 1c1d 34bd
000002b0: f822 96bc 52e3 29bc b211 1abc 569b 853b
000002c0: 8b2f cd3c 5229 153d 62b5 12bd 76d4 4b3c
000002d0: bfb4 50bb d7f6 8d3c d6d3 c6bc 9843 5e3c
000002e0: baf1 01bd 779e 44bb cf7c 18bc 3884 3aba
000002f0: 9af6 e63c 155c 3f3d ecc8 043d 73f0 0abb
00000300: bbb7 123d 9980 1fbd 20ef 85bc 395a adbb
00000310: 83b9 c2bc 226a 07bd 73c4 003d f5f7 1b3c
00000320: 2253 dc3b 9a9c 56bc 0a4c cabc 38c2 08bc
00000330: 077e 983b f9ee 48bc 688c 9cbc 20a0 cebc
00000340: 0f89 6dbc 8b88 663c 9347 c9bb d5f2 d13c
00000350: 76d6 bb3c 0546 fc3c 4040 cfbc 04bc 5fbb
00000360: 1d4b f23a 3555 c6bc b9fe 833c f60a 71bc
00000370: ab66 97bb b096 3f3b aa63 f63b 0221 713c
00000380: 2c79 06bc a12c 0abd 5e32 c23c ccae 493a
00000390: 5054 19bb 5c3f febc cdd4 0bbd efe2 7a3c
000003a0: e0cd 3f3d 635c 12bd 2f0f ad3c 64f6 063d
000003b0: 4558 8a3b 6a13 c2bc 8a6b aebb ec41 d83c
000003c0: dac1 0d3d c0b2 593c 358a ce3c d4bd 1abd
000003d0: 2e74 eabc c1fd 823c ac1d 2b3c 8ece 81bb
000003e0: dce8 0f3c c276 c73c b924 d83b ca5a 623d
000003f0: fc4f eb3c 3594 2f3a 9e49 ac3c 29a3 363d
0.021762103 0.0004047718 0.01563546 -0.019171778 0.022549352 0.007444634 0.0042427033 -0.011448762
-0.01714584 -0.01450737 0.005152643 -0.0036523186 0.017076138 0.030621637 0.007141172 0.006848379
-0.0045327297 -0.016877174 -0.001709286 -0.0062127006 -0.011080542 0.011229825 -0.0006415851 0.027408546
0.002403525 0.018312722 0.019217521 0.026518578 0.027590489 0.0003209409 -0.024099842 0.0124624465
0.022352424 -0.07124567 0.012325794 0.014033709 0.025900045 -0.033674676 0.02273707 0.0074034613
0.048678897 -0.0066381986 0.010690063 -0.019658327 0.008272108 0.02629264 0.017333487 0.013465523
0.041913692 -0.011520788 0.0033507945 0.05104706 -0.0042129224 -0.004935714 0.026659613 0.022360059
0.017325278 0.011301248 0.033370253 0.021032413 0.05365629 -0.018867915 -0.005809494 0.024237093
-0.028727757 -0.0049383775 0.004877916 0.013390927 -0.06752502 -0.04664227 0.02156116 -0.025469879
0.023369294 0.029182265 0.025943365 -0.029551987 0.013734926 0.009897487 -0.0020533274 0.0075922934
0.018407486 0.0052776057 0.01415426 0.028780328 -0.013772675 0.00571065 0.008795697 -0.019722603
0.005655055 0.021707544 -0.04443729 0.02504087 0.02089186 0.006400747 0.030711416 0.0049816314
0.0006803891 0.014556356 -0.0225362 -0.011431557 -0.0068419343 -0.029985987 -0.0038655677 0.057883535
0.0046595316 0.014400655 0.02162776 0.011717451 0.013714459 0.021570696 0.04604289 -0.007828567
0.008523737 0.013326124 -0.0047545726 -0.024754342 -0.020238552 0.029711975 -0.029950086 0.040193435
-0.01451234 -0.02732529 -0.02242199 0.03993563 -0.012505659 -0.012192597 0.045154426 -0.0027364243
0.026596371 0.02649805 0.004886874 0.018694745 0.016541816 0.003031545 -0.009137253 0.0067488905
0.00037283267 0.04675003 -0.0044870256 -0.0071956213 0.024438916 -0.034486424 -0.013630108 0.02720574
0.015447906 0.0030811254 -0.003071273 -0.024269056 -0.03604887 0.03140284 -0.013257197 -0.017107846
0.023402704 0.011695799 -0.01572259 -0.0012529762 0.014309411 -0.013883266 0.0035132125 -0.010267676
-0.02341214 0.010926273 -0.035517484 -0.015703585 0.01668064 0.042945236 -0.00673579 0.029983744
0.04867838 0.014741743 0.019359412 -0.043973073 -0.018327221 -0.010369139 -0.009403633 0.0040773554
0.025047084 0.03641636 -0.03581751 0.012440791 -0.0031846014 0.017329616 -0.024270933 0.01356592
-0.03172467 -0.003000168 -0.0093071 -0.0007115039 0.02819376 0.046718676 0.032418177 -0.0021200448
0.03581975 -0.038941 -0.016349375 -0.0052902964 -0.0237701 -0.0330602 0.03143735 0.009519567
0.0067237774 -0.01309886 -0.024694461 -0.008347087 0.0046536955 -0.012264007 -0.01910992 -0.025222838
-0.014498009 0.01407064 -0.0061425655 0.025628487 0.022929411 0.030795107 -0.025299191 -0.0034139166
0.001848552 -0.024210552 0.016112672 -0.014712086 -0.0046203933 0.0029234104 0.007519205 0.014717342
-0.008207601 -0.033733968 0.023705658 0.0007693588 -0.0023396201 -0.031036071 -0.03413849 0.015312894
0.046827197 -0.035732638 0.021125404 0.03294982 0.0042219483 -0.023690898 -0.0053228782 0.026398621
0.0346087 0.013287246 0.025212387 -0.03777869 -0.028619852 0.01599014 0.010444086 -0.003961391
0.008783545 0.02434862 0.0065961746 0.055262364 0.028724663 0.0006697805 0.021031197 0.044589195

fc1.bias f4 [256]
00000000: e688 0cbd 219b 50bd c8c4 07bd dd7a b5bc
00000010: 9d63 0a3c 6302 acbb 167c 0fbd 74b9 98bb
00000020: 0757 d4bd c0bd ddbd 8c6d 0cbe 0f92 13bc
00000030: 6f5e a53c ddbc e53b 325b 31bd c06d 423c
00000040: 64d1 923b ce2a 603d c54a 85bc eaa7 4ebc
00000050: 70ba 60bd eff2 48bc 07c4 12bd d8ea b3bc
00000060: e183 4fbd d561 093e 4c26 89bc 84bc 3b3d
00000070: a3c8 c4ba 2d0b d43b 226b 113d 9341 1a3c
00000080: 62be 8d3c 684c 033c 3bab acbc bb6d c8bd
00000090: fbb7 953d 3ce8 2fbd cf8a 19be b714 9d3a
000000a0: 1b82 333c c680 633b b64f f4bd d8ee 35bd
000000b0: 2824 eabd 5322 94bd c2f8 80bd 4078 debd
000000c0: 6b53 9abd b171 09bd 80b7 b5bc 1f35 0bbd
000000d0: cd6b b7bc 1f71 b03c 7858 31bd a814 b6bd
000000e0: 6738 cebd 3c60 3b3d 2f26 ba3b 5058 0500
000000f0: 1424 8ebd 7bfe fdbb b1f1 38bd ec71 743d
00000100: 9dc4 693a 3ee8 7dbd 3125 9abd c35c 0580
00000110: c1e3 51bc ce62 2c3d 2c9b ebbc 8882 ffbc
00000120: 3ec0 60bc e995 38bc da55 e3bd 2644 3f3b
00000130: a13d 953d 8d8d adbd dda4 e3bd 201b 87bd
00000140: b46b 793b e04f 93bd e32f cdbd 7127 4fbd
00000150: 1b66 3ebd dc80 8e3d 7e85 5dba f4e4 c7bc
00000160: 8dd1 8dbd 44c3 a5bd 2d64 39be 020c 26be
00000170: 01ed d93c ba86 4e3b 6178 18bd 3c79 343d
00000180: 1160 3fbd 7719 afba cf1c 6d3d 4014 24bd
00000190: 47e0 82bd 1ec0 11be 0c88 8f3d 3ce7 5cbd
000001a0: c3dc f93c 59a2 11bd 2844 16bd 6d21 8b39
000001b0: 7c54 6a3d f767 b8bd 0b59 0500 733c 393d
000001c0: f68c d13d 99b2 093c 32f5 3b3d dab1 dbbc
000001d0: 5bf3 f73b 8b8d c33c c115 ed3b d678 32bc
000001e0: 3d2a 413d 4a5b b1bd 7b0d 65bb 6193 9b3d
000001f0: 417a 8fbd b0a4 89bd 57b3 93bc 7b3a c0bc
00000200: 05b7 123d 58e7 00bd 41f3 4bbb d88c c1bd
00000210: 6219 813b 93e0 94bc 8e41 bdbd c2bf e4bb
00000220: e8eb 39bb 9efd b83b b6be 8cbd dd4d c3bd
00000230: 5f06 f8bc 613a 203d 7056 babd 7c02 2b3d
00000240: cc46 45bb 8a9c 8cbc c54d 5a3d 7281 4abb
00000250: 3ded ac3c ff88 f6bc be35 31bd eff0 523d
00000260: bcc1 d5bd 300b fc3b 2517 65bd 882f 7ebd
00000270: fb78 063c d158 0580 5f1b 51bd 9119 e7bd
00000280: bd4c a2bd 5a0a d23c 6f53 dd3c e848 4fbc
00000290: c37a 7e3d c501 d7bd 1fb2 f2bd 8c34 f2bb
000002a0: 1bfd b1bc 57e6 e9bb e2cd a9b9 fe72 a1bd
000002b0: ed60 0580 1f5c 98bd 7bcf 91bc 86ed 4dbd
000002c0: c55d c7b9 b554 6ebc 1629 10bd bbcd ac3b
000002d0: ef92 a9bd c9a1 a43c b654 9abd d51d 74bd
000002e0: 8770 bfbc 8d4e 87bd bb65 fc3c 87a9 0580
000002f0: 81b2 b8bc 890c 81bc 8aae 023b 5263 2abd
00000300: 6259 0580 2475 23bb 5c57 0580 b5a9 c9bc
00000310: 9919 293c eb58 0580 d110 34bd 50c8 a6bd
00000320: 706b 0cbd ac0d 1dbd bdf0 07be ca56 0fbd
00000330: e159 0500 0cba 9ebd 1709 f53a 448d 91bd
00000340: 850e bfbd 14f1 023d a1b2 bc3d 225e 0500
00000350: e581 633c 485a 85bc b721 9a3a f6b7 913c
00000360: 1cff a83c 9108 11bd 016a 113c 2232 2c3d
00000370: 4f93 583d 1789 02be b176 3dbd c29c dd37
00000380: 8a42 ce3c e858 8a3a 2c2e 3dbd b1e5 85bc
00000390: 6277 5f3c 408d e4bd 06e6 33bd 650e c9bc
000003a0: e946 9b3b 60de 12be 4e2f a93d 6358 a9bb
000003b0: 039f d03a 8bbc 5f3c 8cc6 99bd 7bf2 45bc
000003c0: 5411 313d a748 17bc d5a5 f8bc 07bc edbc
000003d0: f43d 6a3d 2786 d3bc 3a3d 3fbd ac48 d8ba
000003e0: 2a31 4b3d 5ef2 803d 7923 4abc bc0b 5fbc
000003f0: 097b dabc 00f6 a0bc 8ab4 dbbd 1aa5 943b
-0.034310244 -0.050929192 -0.03314665 -0.022153312 0.008446601 -0.005249308 -0.035030447 -0.0046607796
-0.10368162 -0.108272076 -0.13713664 -0.009006991 0.020186631 0.0070110396 -0.04329986 0.011866987
0.0044805277 0.05472832 -0.016271004 -0.012613276 -0.0548653 -0.012264951 -0.035831477 -0.021962568
-0.05066288 0.13416226 -0.016741894 0.04583408 -0.0015013408 0.006471059 0.03550256 0.009415048
0.017302696 0.008013822 -0.021077743 -0.097865544 0.07310482 -0.042946085 -0.14994358 0.0011984323
0.0109563125 0.0034714206 -0.11929266 -0.044417232 -0.114326775 -0.07233109 -0.06297447 -0.108627796
-0.07535442 -0.03355569 -0.022182226 -0.033986207 -0.02239027 0.021538315 -0.04329726 -0.088906586
-0.10069352 0.045746073 0.0056808214 4.90858e-40 -0.06940475 -0.0077512837 -0.04515237 0.059678957
0.0008917542 -0.06198906 -0.07526625 -4.92454e-40 -0.012810648 0.042086415 -0.028760515 -0.031190172
-0.013717709 -0.01126621 -0.11100359 0.0029184907 0.072871454 -0.08474264 -0.111154296 -0.065969706
0.003805858 -0.07192969 -0.10018899 -0.050574724 -0.046484094 0.06958172 -0.0008450373 -0.024401166
-0.06924734 -0.080938846 -0.1810462 -0.16215518 0.02660227 0.0031513409 -0.037224177 0.04406093
-0.046722475 -0.001335903 0.057888802 -0.040058374 -0.06390434 -0.14233443 0.07008371 -0.05393146
0.030500775 -0.035555217 -0.036686093 0.0002653705 0.057209477 -0.09004205 4.9112e-40 0.045223664
0.10231964 0.008404397 0.045888133 -0.026818205 0.007566852 0.023871204 0.0072352593 -0.010893067
0.047159422 -0.0865999 -0.0034950662 0.0759647 -0.0700574 -0.06720865 -0.018029852 -0.023465386
0.035819072 -0.031470627 -0.0031120332 -0.09450692 0.0039397934 -0.018173492 -0.09241019 -0.006980867
-0.002836937 0.005645468 -0.06872313 -0.095363356 -0.030276475 0.039118174 -0.09098518 0.041750416
-0.0030102013 -0.017164487 0.053296823 -0.003089991 0.021109218 -0.030094622 -0.043264143 0.051499303
-0.104373425 0.0076917633 -0.055930275 -0.062057048 0.008207555 -4.91039e-40 -0.051051494 -0.11284173
-0.07924793 0.025639702 0.027017323 -0.01265166 0.062128793 -0.104983844 -0.1185038 -0.007391518
-0.021727135 -0.0071380544 -0.00032387587 -0.07883261 -4.93948e-40 -0.07439446 -0.01779913 -0.050275348
-0.00038026102 -0.014546563 -0.035195433 0.0052735484 -0.082799785 0.020096676 -0.075356886 -0.059598763
-0.023369087 -0.06606779 0.030810228 -5.19992e-40 -0.022546055 -0.015753048 0.001994046 -0.041598625
-4.91242e-40 -0.0024941647 -4.90516e-40 -0.024617055 0.010321044 -4.91075e-40 -0.04396135 -0.08143675
-0.034282148 -0.038343117 -0.13275428 -0.034994878 4.9142e-40 -0.077503294 0.0018694726 -0.071070224
-0.09328941 0.03196819 0.09213758 4.92946e-40 0.01388595 -0.016278401 0.0011759315 0.017787915
0.020629458 -0.03540856 0.008875371 0.042039998 0.05287486 -0.12747608 -0.04625577 2.6418249e-05
0.025178213 0.001055506 -0.04618661 -0.016344877 0.013639303 -0.11159754 -0.04392054 -0.024542997
0.0047386778 -0.14342642 0.08260976 -0.005168007 0.001591653 0.013655792 -0.07508573 -0.012081738
0.043229416 -0.00923363 -0.030352512 -0.029020322 0.05718799 -0.025820805 -0.04668925 -0.001650115
0.049607433 0.06296228 -0.012337559 -0.013613638 -0.026669996 -0.019648552 -0.107277945 0.004536283

fc2.weight f4 [128, 256]
00000000: 1250 2c3d 795b 7abe 774e 1e3d 5018 9bbc
00000010: 2785 413b fcce 413c 61a9 113e 4ec1 153e
00000020: 1e02 aa3d e418 463d ced4 083e 428d cdbd
00000030: 35f3 83bc bf7d 0ebe 2577 913d 2639 1dbd
00000040: 4f1e 263e 393b 183e 5b67 0cbe 2c15 0a3d
00000050: 7b0b 1f3d fa27 a2bd 9621 d5bb e2f8 783c
00000060: 55f5 aebc ec45 16bd 91d7 0b3d a260 823e
00000070: 69b1 ef3d 9cb9 143e eb3d f8bd 147f d1bb
00000080: c816 0ebd c9b0 6dbe 1050 363e 41c2 3b3e
00000090: 2f9f 58bd ec6f 4d3d 5847 033e f5f7 823c
000000a0: e606 84be 0fd5 b73d f978 bf3c 63ff 9fbb
000000b0: a9c1 1cbe 1135 0dbe fc0c 1b3e e5f6 953d
000000c0: 0d17 a33d 4568 a73d d3df cf3d 762f b9bd
000000d0: 4a8c 83bd 61d1 7c3e ec2b 653e 0a71 92bd
000000e0: bb95 1cbd 998e 913c fce4 173c d559 0580
000000f0: 79f6 2e3d e6a5 1cbe 74d7 833c ca62 4a3d
00000100: 4ea0 2ebe 905b c5bd 806b 603d 835a 0500
00000110: 85f5 fd3d b434 03be 02b4 4dbb 3e81 64bc
00000120: 5fc3 123c b60b f43d 2a69 b93d b5b2 b83c
00000130: d409 9f3a d74b 70bd 6efe 873c a019 753d
00000140: c034 033d 627f e93d d5f3 13be 1570 61bc
00000150: f2b5 fd3c 5849 1d3e 67f1 c13c cb2b bb3d
00000160: da02 2e3d bf6b e13d 056d 933d 9d7a bf3d
00000170: 5c2a 78bd b441 083e bba4 48bd abc2 6c3d
00000180: 9097 ea3c d769 6f3d 1af9 6c3e 7500 2d3d
00000190: 10a0 333e d9cd 1dbb abd0 f63d 0d6b 0abb
000001a0: 1220 b6bd 336a 1b3d fd08 373e bef7 473d
000001b0: 2ade 64bd 19c9 8dbc fe59 0580 73a6 c2bd
000001c0: 8607 423e 3664 503b 28ec 913d fe75 48bd
000001d0: 9b29 783d 49c6 a03c c57d 8f3c 4d34 6c3c
000001e0: 33aa 5f3e 7d37 07be 3419 873d cfaa 6f3d
000001f0: 1c99 f63d 9623 54be dc51 ad3d 3966 393d
00000200: c73d 2e3e 750a eebd 1dd1 ba3d 1e67 04bd
00000210: df27 4ebd 49f0 823c 47e8 2b3e b326 5a3d
00000220: 3d57 eabd 4170 29be aa91 013d 580a 743d
00000230: e536 6cbe ab4f 17bc c23b 60be 0db7 edbd
00000240: f827 723c 9e43 56bb 79cf 6b3d 3106 21bd
00000250: ef81 313b e98d 093e 4161 99bd c485 09ba
00000260: 5ac0 9d3d 709d 9abc 3b15 20bd e912 cf3c
00000270: ea5a 1b3d 3957 0500 10ea bebc 4214 51bd
00000280: 67e7 ae3d f148 3a3d e63d 0b3e 6624 2b3d
00000290: 532c 263e 2773 a33d c5fd 62bc daf7 ed3c
000002a0: ec4c 743e 61a7 52be c28f e3bb f62a 063c
000002b0: 3c5c 0500 4a3e c93d 4963 afbc a275 493d
000002c0: 6088 35bd 6f43 653e f76c c63b 9d7d b2bc
000002d0: 2c41 47bc 5d13 3e3d b61b b7bd 7770 163e
000002e0: fcc7 f53d 01c5 5f3c f42b 4e3d 355b 0580
000002f0: 20bb 013e be18 263a 9456 82bc d1eb ab3d
00000300: e860 0580 fee0 983e 3d57 0500 0e86 c63c
00000310: bcbd 58bd d358 0580 684f 1b3d 1727 59bd
00000320: ec6c e93d 052b 72bd 0dcd 95bc 959d 663d
00000330: e45c 0500 196b 1f3e fc8c c6ba 4d7e e43d
00000340: 3963 fc3d 7aee 80bd 1272 1bb8 af5a 0500
00000350: dfba 9a3e d356 ee3d efe9 203d 4d63 373d
00000360: 6f36 103e 46fe dfbc 6de0 2c3e d0d4 11bc
00000370: 06f4 043e f4d5 ea3c 68f5 d7bd f7d1 6f3d
00000380: 349b 4a3e ab83 aabc fd43 ebbc 364b 9ebc
00000390: a340 8cbd 6a1e 973d aa58 23be 64ad e23d
000003a0: 3031 753c b811 3e3d c6a4 013e fe25 903b
000003b0: f605 d33b 692b d83d 065f a0bd f03c 533e
000003c0: 82e4 edbd 840d 52bb 909e 2c3c 81ce 12be
000003d0: 0026 c43c 5dd3 ca3d 31d6 87bd d5f7 4d3b
000003e0: cb7d bfbd 1345 0f3e 7b55 2b3d d25b bf3d
000003f0: 9cdd a73d d085 b23d 0e56 033c 02c2 23be
0.04206855 -0.24448957 0.03864905 -0.018932492 0.0029528828 0.011829134 0.14224769 0.14624521
0.08301185 0.04836358 0.13362429 -0.100367084 -0.016107181 -0.13915156 0.07102803 -0.03838458
0.162225 0.14866342 -0.13711302 0.033711597 0.038829308 -0.07917781 -0.006504248 0.015196057
-0.021357218 -0.036687776 0.034141127 0.2546435 0.1170376 0.1452393 -0.12121185 -0.0063933227
-0.034689695 -0.2321197 0.17803979 0.1833582 -0.052886184 0.050155565 0.12820184 0.015987376
-0.25786513 0.089761846 0.023373114 -0.0048827394 -0.1530825 -0.13789774 0.15141672 0.07322482
0.07963381 0.08174185 0.10150113 -0.090422556 -0.064232424 0.24689247 0.22380036 -0.07150467
-0.03822873 0.017768191 0.009270903 -4.91403e-40 0.042715523 -0.1529766 0.016093947 0.04941062
-0.17053339 -0.09636605 0.05479002 4.91647e-40 0.12400345 -0.12813073 -0.003138781 -0.013946829
0.008957713 0.11916296 0.090532616 0.022546152 0.0012133666 -0.058666077 0.016600814 0.05983889
0.03203273 0.114012495 -0.14448483 -0.013759633 0.030970547 0.1536001 0.02367468 0.09139212
0.04248319 0.11006879 0.07198528 0.093495585 -0.060587272 0.13306314 -0.048985224 0.057802837
0.028636724 0.058450546 0.231419 0.042236764 0.17541528 -0.0024078994 0.12051519 -0.0021120936
-0.08892836 0.037943076 0.17874523 0.04882025 -0.055875935 -0.017307805 -4.9146e-40 -0.09504404
0.18948182 0.0031798012 0.07125121 -0.04894065 0.060586553 0.0196258 0.017516026 0.014416766
0.2184227 -0.13204761 0.06596604 0.058512505 0.12040922 -0.207167 0.08462879 0.045263503
0.17015754 -0.11623088 0.091219164 -0.032324903 -0.050330993 0.015983718 0.16787826 0.053259563
-0.11442421 -0.16546728 0.031633057 0.059580177 -0.23067816 -0.009235303 -0.21897796 -0.1160718
0.014780037 -0.0032694112 0.05757091 -0.039312545 0.0027085503 0.1343304 -0.07489253 -0.0005246068
0.07702704 -0.0188739 -0.039082747 0.025277572 0.0379285 4.90467e-40 -0.02330497 -0.05104471
0.0854023 0.04547972 0.13597831 0.04178276 0.16227846 0.07980948 -0.013854449 0.029048849
0.23857468 -0.20571662 -0.0069446275 0.008188954 4.92265e-40 0.09826334 -0.021409648 0.04918445
-0.04431951 0.22389005 0.00605547 -0.021788413 -0.012161534 0.046405185 -0.08940832 0.1469134
0.120010346 0.013657809 0.050334886 -4.91896e-40 0.12669039 0.00063360843 -0.015910424 0.08394588
-4.93941e-40 0.29859155 4.90473e-40 0.024233844 -0.05291532 -4.91042e-40 0.037917525 -0.053015795
0.11397728 -0.059123058 -0.018286252 0.056302626 4.925e-40 0.15568198 -0.0015148218 0.111569025
0.12323613 -0.06295486 -3.7061116e-05 4.91709e-40 0.30220696 0.11637654 0.039285596 0.044772435
0.14083265 -0.027342927 0.16882487 -0.008900836 0.12983713 0.028666474 -0.105448544 0.058549847
0.19785768 -0.020814737 -0.028718943 -0.019322973 -0.06848266 0.07378848 -0.15951791 0.11068228
0.0149653405 0.046403617 0.12660512 0.0043990603 0.0064399196 0.10555155 -0.07830624 0.20628715
-0.1161585 -0.0032051513 0.010535851 -0.14336587 0.023943901 0.099035956 -0.06632651 0.0031428237
-0.09350165 0.13991193 0.041829567 0.09343685 0.081965655 0.08716929 0.0080161225 -0.15991977
